newton_raphson/newton_raphson/holybro_rnn.pt (torch, 10959 bytes, 34 tensors)

rnn.weight_ih_l0 f4 [4, 13]
-0.08295949 -0.0040613376 0.010225278 -0.06791551 -0.0058126203 0.0081241205 -0.023514472 0.18767627
0.0015051005 -0.0014317257 -0.003523805 0.035295326 0.0008368089 0.002620976 0.075500764 0.18140152
0.00159771 0.060951266 0.14502296 0.36808375 -0.005840275 0.0032293508 -0.030820386 0.0719013
-0.0016833436 0.0016466058 0.0029889806 0.0319152 0.27419233 0.0028663955 0.01888607 0.21969743
0.85439426 -0.011778494 0.005395083 -0.05131624 0.16609672 -0.0013585781 0.00088230334 0.005144367
-0.051320132 0.12226969 0.0047618966 -0.042907197 0.09682602 -0.25165865 -0.013884372 -0.003642833
-0.01869774 -0.05050339 -0.00096343993 -0.0012585176
00000000: aae6 a9bd f814 85bb ed87 273c 4917 8bbd
00000010: cb77 bebb 081b 053c 6ca1 c0bc 352e 403e
00000020: cb46 c53a bea8 bbba a3ef 66bb d591 103d
00000030: 4b5d 5b3a aec4 2b3b 25a0 9a3d 52c1 393e
00000040: 406a d13a 09a8 793d e680 143e 7975 bc3e
00000050: c75f bfbb 84a3 533b 097b fcbc fd40 933d
00000060: a3a3 dcba ecd2 d73a c6e2 433b 83b9 023d
00000070: f062 8c3e 23da 3b3b f6b6 9a3c 5df8 603e
00000080: 95b9 5a3f 96fa 40bc 3dc9 b03b fa30 52bd
00000090: 4215 2a3e 5112 b2ba 604a 673a 1492 a83b
000000a0: 0f35 52bd 8868 fa3d af09 9c3b 75bf 2fbd
000000b0: b84c c63d 67d9 80be 477b 63bc 99bc 6ebb
000000c0: 012c 99bc a5dc 4ebd 5c8f 7cba d8f4 a4ba

rnn.weight_hh_l0 f4 [4, 4]
0.060129803 0.02082481 -0.018281413 -0.017344823 0.016545912 0.018499533 0.06457032 -0.04630868
0.016985057 -0.05623768 0.14367695 -0.036607616 0.04680245 0.025479134 -0.027409462 0.08305769
00000000: ab4a 763d cb98 aa3c e7c2 95bc bb16 8ebc
00000010: 4b8b 873c 558c 973c 723d 843d 2cae 3dbd
00000020: 3f24 8b3c 7b59 66bd 0d20 133e def1 15bd
00000030: edb3 3f3d 9eb9 d03c cf89 e0bc 261a aa3d

rnn.bias_ih_l0 f4 [4]
-0.14024958 -0.17098917 -0.10072344 0.10870242
00000000: 969d 0fbe c917 2fbe 1748 cebd 609f de3d

rnn.bias_hh_l0 f4 [4]
0.16120028 0.25603318 0.2814312 0.57024425
00000000: b011 253e c816 833e c017 903e 87fb 113f

rnn.weight_ih_l1 f4 [4, 4]
0.43426698 -0.24712487 0.21181174 -0.094909064 -0.13209756 -0.54312176 0.3670194 0.3701176
-0.0059271813 -0.71354485 0.03996571 -0.11212425 0.49189308 0.09237089 -0.0910585 0.1474715
00000000: 3e58 de3e 4d0e 7dbe 2de5 583e af5f c2bd
00000010: 9544 07be 070a 0bbf f7e9 bb3e 0e80 bd3e
00000020: cd38 c2bb e0aa 36bf 16b3 233d 66a1 e5bd
00000030: 69d9 fb3e f32c bd3d e17c babd c502 173e

rnn.weight_hh_l1 f4 [4, 4]
0.102200046 0.028534403 0.019141184 0.060416117 -0.017860642 0.10313316 -0.027797692 -0.09759691
0.090581656 0.021718012 -0.023508986 -0.00773784 0.01157216 0.022217477 -0.00072987506 0.013691515
00000000: 424e d13d fbc0 e93c f9cd 9c3c e476 773d
00000010: 7b50 92bc 7a37 d33d fcb7 e3bc e4e0 c7bd
00000020: e082 b93d f9e9 b13c eb95 c0bc b58d fdbb
00000030: 2899 3d3c 6d01 b63c 1655 3fba 6052 603c

rnn.bias_ih_l1 f4 [4]
0.040139355 -0.0068108644 0.06239627 -0.08669398
00000000: 2a69 243d ac2d dfbb 3b93 7f3d 9d8c b1bd

rnn.bias_hh_l1 f4 [4]
-0.013301951 -0.09320364 -0.08688404 0.0069443365
00000000: 6df0 59bc 8de1 bebd 42f0 b1bd 518d e33b

rnn.weight_ih_l2 f4 [4, 4]
0.53895795 -0.22248603 0.1290223 0.32182664 0.22921075 0.9738247 0.46682823 0.1090968
0.13229069 -0.26465046 0.42434862 -0.5908675 0.018082365 -0.55737615 -0.13912526 -0.23816885
00000000: 26f9 093f 61d3 63be 6c1e 043e 76c6 a43e
00000010: 39b6 6a3e 934c 793f 1c04 ef3e 256e df3d
00000020: 3677 073e 4480 87be 3944 d93e 1843 17bf
00000030: 7821 943c 34b0 0ebf da76 0ebe 89e2 73be

rnn.weight_hh_l2 f4 [4, 4]
0.060425386 0.035235137 0.023459902 0.0065273005 0.08102529 0.0020228715 0.017513933 0.2376284
-0.05317004 -0.034665853 0.0463565 -0.10757249 -0.103715315 -0.030658485 0.037129827 0.061578818
00000000: 9c80 773d b852 103d fb2e c03c f7e2 d53b
00000010: 96f0 a53d 2792 043b 6179 8f3c dc54 733e
00000020: d4c8 59bd c8fd 0dbd 50e0 3d3d f74e dcbd
00000030: b268 d4bd 8127 fbbc 7215 183d 123a 7c3d

rnn.bias_ih_l2 f4 [4]
-0.06205994 -0.46863934 -0.029909596 -0.10549908
00000000: 9032 7ebd 7ff1 efbe f804 f5bc e70f d8bd

rnn.bias_hh_l2 f4 [4]
0.06393671 -0.024974538 -0.2638813 0.11544027
00000000: 40f1 823d 6797 ccbc 731b 87be f36b ec3d

rnn.weight_ih_l3 f4 [4, 4]
-0.79655266 0.15665455 -0.4235013 -0.59702855 0.03943071 -0.6414527 -0.29441553 0.3012665
-0.42825794 0.118881024 0.5031322 0.3663567 0.7616524 0.19511168 -0.03291121 -0.08954294
00000000: e0ea 4bbf 0d6a 203e 2ad5 d8be ddd6 18bf
00000010: 1982 213d 3f36 24bf a2bd 96be 9a3f 9a3e
00000020: a044 dbbe e577 f33d 46cd 003f 1b93 bb3e
00000030: a7fb 423f 5bcb 473e e8cd 06bd 4a62 b7bd

rnn.weight_hh_l3 f4 [4, 4]
-0.1057089 -0.1657499 0.19459331 0.041180197 0.06564871 0.12976617 -0.0035535896 0.026711518
-0.035750717 -0.061875325 -0.0037328391 0.023179742 0.01740648 0.071548894 -0.064636156 -0.04937421
00000000: e87d d8bd 57ba 29be 7843 473e 91ac 283d
00000010: d572 863d 6ce1 043e 57e3 68bb 1dd2 da3c
00000020: 586f 12bd fb70 7dbd a6a2 74bb 71e3 bd3c
00000030: 0998 8e3c 3a88 923d f65f 84bd 9d3c 4abd

rnn.bias_ih_l3 f4 [4]
0.20857856 0.0027847406 0.08688245 0.069710195
00000000: 9e95 553e 3280 363b 6def b13d 38c4 8e3d

rnn.bias_hh_l3 f4 [4]
0.003850724 -0.12016227 -0.01873527 0.018940011
00000000: 6e5c 7c3b a317 f6bd b57a 99bc 1528 9b3c

rnn.weight_ih_l4 f4 [4, 4]
0.75716895 0.38920358 -0.9213627 -0.054903314 -0.36225936 0.20523174 -0.43088546 0.5373568
0.16159609 -0.88689446 0.18148646 0.12049669 -0.0054018428 -0.8961619 -0.099494964 0.4320999
00000000: d3d5 413f b145 c73e 6dde 6bbf 4ce2 60bd
00000010: 0f7a b9be 4528 523e 059d dcbe 3790 093f
00000020: 7279 253e 840b 63bf 96d7 393e f8c6 f63d
00000030: f101 b1bb de6a 65bf 04c4 cbbd 333c dd3e

rnn.weight_hh_l4 f4 [4, 4]
-0.008947948 0.04854009 -0.05911722 0.019254535 -0.07677728 -0.047649864 0.11484569 0.037121627
-0.002023197 -0.025023162 -0.17418312 0.06173234 0.04197911 -0.108756624 -0.09607024 0.022002125
00000000: 6a9a 12bc f9d1 463d e624 72bd b0bb 9d3c
00000010: 683d 9dbd 812c 43bd 3834 eb3d d90c 183d
00000020: 9d97 04bb 60fd ccbc 0f5d 32be 0ddb 7c3d
00000030: 4af2 2b3d cbbb debd 79c0 c4bd cd3d b43c

rnn.bias_ih_l4 f4 [4]
-0.02330513 0.17614703 0.11811645 0.02832999
00000000: 66ea bebc e35f 343e 0ae7 f13d 4c14 e83c

rnn.bias_hh_l4 f4 [4]
0.059226662 -0.2899074 -0.122865796 0.10670544
00000000: a897 723d be6e 94be 10a1 fbbd 6288 da3d

rnn.weight_ih_l5 f4 [4, 4]
0.6155242 0.26051047 -0.31940228 -0.8087846 0.8620327 -0.07576609 -1.5477408 -1.3338168
0.18808931 -1.4341813 0.5800833 0.025849663 -0.7026972 -0.38305515 -0.23834856 -0.94874734
00000000: fe92 1d3f a161 853e b288 a3be 820c 4fbf
00000010: 2dae 5c3f 402b 9bbd 5f1c c6bf 82ba aabf
00000020: 7c9a 403e 4193 b7bf 5780 143f acc2 d33c
00000030: f7e3 33bf ce1f c4be a511 74be 1be1 72bf

rnn.weight_hh_l5 f4 [4, 4]
0.0416617 0.02951769 0.073796146 -0.04878987 -0.018598028 0.015117906 -0.018035488 -0.009386918
-0.044117827 0.011119818 -0.018029535 -0.14998108 0.009303165 0.015004029 0.07116399 -0.11193061
00000000: 75a5 2a3d 15cf f13c 6f22 973d e3d7 47bd
00000010: e45a 98bc 18b1 773c 29bf 93bc 96cb 19bc
00000020: e5b4 34bd e62f 363c adb2 93bc a494 19be
00000030: 4d6c 183c 75d3 753c 6dbe 913d e03b e5bd

rnn.bias_ih_l5 f4 [4]
-0.054664318 0.14339209 -0.20989755 0.017394805
00000000: b1e7 5fbd 60d5 123e 62ef 56be 8d7f 8e3c

rnn.bias_hh_l5 f4 [4]
-0.13587254 0.06644153 0.039575543 0.20608483
00000000: 2c22 0bbe 7f12 883d f719 223d e707 533e

rnn.weight_ih_l6 f4 [4, 4]
0.007908586 0.41144654 0.60404015 -2.0547142 1.6352803 3.0681345 -0.23856716 0.79300594
-1.5180426 0.15982464 0.2773394 0.27058107 0.24926773 0.10661444 1.3339388 0.29947573
00000000: 0493 013c 1fa9 d23e 60a2 1a3f 7080 03c0
00000010: dd50 d13f 515c 4440 f34a 74be 7002 4b3f
00000020: 384f c2bf 12a9 233e 6eff 8d3e 9a89 8a3e
00000030: 0a40 7f3e ac58 da3d 82be aa3f e254 993e

rnn.weight_hh_l6 f4 [4, 4]
-0.022387417 -0.0027229693 0.025741907 0.07168491 -0.053356644 -0.022503633 0.08464322 -0.121631145
-0.0009787963 -0.0050342525 -0.03181521 0.051110964 -0.055649925 0.005045291 -0.0074804933 -0.084039
00000000: d165 b7bc d873 32bb b1e0 d23c 8acf 923d
00000010: 7f8c 5abd 8a59 b8bc 6d59 ad3d c019 f9bd
00000020: f44a 80ba 5ff6 a4bb aa50 02bd bb59 513d
00000030: 2df1 63bd f852 a53b ed1e f5bb a41c acbd

rnn.bias_ih_l6 f4 [4]
0.104279146 0.054657858 0.1844598 -0.17631286
00000000: 4e90 d53d ebe0 5f3d 08e3 3c3e 5c8b 34be

rnn.bias_hh_l6 f4 [4]
-0.1462266 0.4147835 0.029333424 0.03451046
00000000: 6dbc 15be 815e d43e a64c f03c d75a 0d3d

rnn.weight_ih_l7 f4 [4, 4]
1.0453986 0.035494123 -1.2078028 -0.98060626 1.1498383 -1.1147786 1.1556176 -0.014713618
1.8596705 -0.04781251 0.033668607 0.37511143 -0.23431703 -0.06815484 0.6556349 -2.124237
00000000: 9fcf 853f 4962 113d 4899 9abf 0309 7bbf
00000010: e72d 933f 11b1 8ebf 47eb 933f 6311 71bc
00000020: af09 ee3f 0dd7 43bd 18e8 093d 9b0e c03e
00000030: cef0 6fbe c494 8bbd b0d7 273f 80f3 07c0

rnn.weight_hh_l7 f4 [4, 4]
-0.01100738 0.004995306 -0.012771537 -0.011990211 0.044643253 -0.026197158 0.032829996 -0.015550873
0.04481115 0.041348435 0.03840159 -0.04113276 -0.008179354 -0.021032186 0.03117578 0.0061467164
00000000: 4c58 34bc aaaf a33b b53f 51bc 9772 44bc
00000010: d8db 363d 6c9b d6bc bf78 063d 17c9 7ebc
00000020: e58b 373d fa5c 293d fc4a 1d3d d37a 28bd
00000030: b202 06bc b14b acbc 5964 ff3c 656a c93b

rnn.bias_ih_l7 f4 [4]
0.15697569 0.3476651 -0.2007343 -0.17577292
00000000: 3cbe 203e 2901 b23e 4b8d 4dbe d1fd 33be

rnn.bias_hh_l7 f4 [4]
0.02305374 0.32138938 -0.5689438 -0.10412456
00000000: 32db bc3c 268d a43e 4da6 11bf 423f d5bd

fc.weight f4 [4, 4]
-4.069543 0.15621792 -0.0762622 -4.63355 -1.7415572 -5.3103933 -0.2878114 1.4462159
3.3164024 -2.4002745 2.9014673 -3.402634 -0.010437306 -0.004675923 0.00047223066 0.010849294
00000000: b239 82c0 97f7 1f3e 5b2f 9cbd 0b46 94c0
00000010: 59eb debf beee a9c0 045c 93be 9a1d b93f
00000020: f03f 5440 199e 19c0 a4b1 3940 c1c4 59c0
00000030: 3c01 2bbc 7c38 99bb ba95 f739 3dc1 313c

fc.bias f4 [4]
0.0038516356 0.42574504 1.0744283 0.0058446717
00000000: b96b 7c3b 41fb d93e de86 893f a984 bf3b
