newton_raphson/newton_raphson/holybro_deq.pt (torch, 89591 bytes, 6 tensors)

mon.linear_module.U.weight f4 [100, 13]
0	0xbe8ec019	-0.27880934
1	0xbe950ebe	-0.2911281
2	0x3cd25093	0.025673186
3	0xbeabd29d	-0.33559123
4	0xbd8ef938	-0.069811285
5	0x3e1459d4	0.14487392
6	0xbf6a054f	-0.9141435
7	0x3f1a788f	0.6034021
8	0xbd985b6b	-0.074393116
9	0xbcce0ee1	-0.02515358
10	0xbdf319a4	-0.11870125
11	0x3d10ad30	0.035321414
12	0x3e82efa4	0.25573456
13	0x3dcedc71	0.101006396
14	0xbdc5b6e8	-0.09654027
15	0x3dbe9181	0.093050964
16	0x3e3aa098	0.18225324
17	0xbe64d420	-0.22346544
18	0xbe55e040	-0.20886326
19	0xbf87a0a2	-1.0595896
20	0xbf397214	-0.72439694
21	0xba0264c6	-0.0004974123
22	0xbd97018b	-0.07373341
23	0xbe27bfe8	-0.163818
24	0xbea6f2bf	-0.32607076
25	0x3ea76c5f	0.32699868
26	0xbe31e468	-0.17372286
27	0xbeea1dad	-0.45725766
28	0xbe141512	-0.14461163
29	0xbe16cb5d	-0.14726014
30	0xbeef5eeb	-0.46752104
31	0xbdada552	-0.08478798
32	0x3f00ccb6	0.50312364
33	0xbe37bb68	-0.17942584
34	0x3ec6a76b	0.38799605
35	0xbd981a23	-0.0742686
36	0x3ba4a6c7	0.005024764
37	0xbd62833f	-0.055300947
38	0xbdd268eb	-0.10273918
39	0xbe935f6f	-0.28783748
40	0xbca04759	-0.019565271
41	0xbdc67d42	-0.0969186
42	0xbda7dc3e	-0.08196305
43	0x3e0dcc7b	0.13847534
44	0xbe2f9e03	-0.1715012
45	0xbe24dabb	-0.16099064
46	0x3e2e3aab	0.17014568
47	0xbdb5af16	-0.088712856
48	0x3e21afb7	0.15789686
49	0x3e362018	0.1778568
50	0x3e70ef09	0.23528685
51	0x3dbb2294	0.09137455
52	0x3ced4bca	0.028966803
53	0xbea4ae7e	-0.32164377
54	0xbd12ab81	-0.03580809
55	0x3e2ff67c	0.1718387
56	0xbe857bb6	-0.26070946
57	0x3dc90cb4	0.09816876
58	0xbf171207	-0.5901188
59	0xbf32cd66	-0.69844663
60	0xbe47c8fc	-0.19510263
61	0xbe07b175	-0.13251288
62	0x3dbaeb88	0.09126955
63	0xbdcd2746	-0.100172564
64	0xbe59b5af	-0.21260713
65	0x3e84864e	0.25883716
66	0xbe4f8a6c	-0.20267648
67	0x3e77ac1f	0.24186753
68	0xbdef1ab8	-0.11675018
69	0xbe979e28	-0.2961285
70	0xbceb87e8	-0.028751329
71	0xbf827e39	-1.019477
72	0x3c1fbd81	0.009749771
73	0xbe8a437b	-0.2700461
74	0x3e44d5ab	0.19222133
75	0xbcda09ab	-0.026615938
76	0x3d914cef	0.07094752
77	0x3ce1b4e6	0.02755208
78	0x3dcd200e	0.100158796
79	0x3e85f039	0.26159838
80	0xbd038b30	-0.03211516
81	0x3e6c8a16	0.2309955
82	0x3cdfaac1	0.027303101
83	0x3e2bfb20	0.16795015
84	0xbd868c1d	-0.06569693
85	0xbe59edb5	-0.21282084
86	0x3e61eab0	0.22062182
87	0xbd075a7f	-0.03304529
88	0xbdc90548	-0.098154604
89	0x3dc86743	0.097853206
90	0xbcfe63fa	-0.031053532
91	0x3e4dd566	0.20100936
92	0xbd24d66d	-0.040243555
93	0xbb907a57	-0.0044091153
94	0x3e928a24	0.28621018
95	0xbd7d999c	-0.06191407
96	0xbdc3f528	-0.09568244
97	0x3f73a295	0.95169955
98	0xbd9dda30	-0.077076316
99	0xbbb9cd43	-0.005670221
100	0x3e25ddf8	0.16197956
101	0x3e1f9cea	0.15587202
102	0x3d69eaf8	0.05710885
103	0xbdb5ca31	-0.088764556
104	0x3d943040	0.072357655
105	0xbdff211e	-0.124574885
106	0xbd9b74ce	-0.07590638
107	0xbd7e1169	-0.062028322
108	0x3ccd3860	0.025051296
109	0x3e0047f7	0.12527452
110	0xbee17656	-0.44035596
111	0x3f01c0dd	0.5068491
112	0x3e3422d6	0.17591414
113	0x3e56eb61	0.20988227
114	0x3d3aca80	0.045603275
115	0x3d2e7cc9	0.042599473
116	0x3e964b7b	0.29354462
117	0xbeabc8b8	-0.33551574
118	0x3e18c9da	0.1492075
119	0x3e32ef66	0.17474136
120	0x3e056c87	0.13029681
121	0x3db43dd5	0.08800856
122	0x3d340036	0.043945514
123	0x3eaf7e09	0.34275845
124	0xbcc3ce71	-0.02390215
125	0xbf0bc024	-0.5459006
126	0x3df24542	0.11829616
127	0x3e10b1f8	0.1413039
128	0x3da60cae	0.08107887
129	0xbd90b664	-0.07066038
130	0x3e77ff08	0.2421838
131	0x3edc5d0b	0.43039736
132	0xbe70e7b7	-0.23525892
133	0x3e6c409d	0.23071523
134	0x3e79a993	0.24381094
135	0xbe8d7232	-0.27626187
136	0xbf1cf652	-0.61313355
137	0x3f249054	0.6428273
138	0xbe915428	-0.2838452
139	0xbc8f3336	-0.017480474
140	0xbe81385c	-0.2523831
141	0x3e24cc94	0.16093665
142	0xbd738820	-0.05945599
143	0x3e0e5710	0.13900399
144	0xbe856244	-0.26051533
145	0xbe63ecae	-0.22258255
146	0x3da37848	0.07981926
147	0xbe9d0546	-0.30668086
148	0x3e7f89f3	0.24954967
149	0xbf19b60b	-0.600434
150	0xbed7497d	-0.42048255
151	0x3eb6d2be	0.3570766
152	0xbe257011	-0.16156031
153	0xbdc946ca	-0.09827955
154	0xbdb24518	-0.08704585
155	0x3e3fe4fa	0.18739691
156	0x3e2e9f67	0.17052995
157	0x3df6d314	0.12051979
158	0x3e42ca41	0.19022466
159	0x3e70403c	0.23462003
160	0xbc4b9419	-0.012425446
161	0x3e504cda	0.20341817
162	0xbee004bc	-0.43753612
163	0xbf3a6736	-0.7281374
164	0x3b5b769b	0.0033487442
165	0x3e1620a1	0.14660884
166	0x3b8006f9	0.003907081
167	0xbe86ca93	-0.26326427
168	0xbdbc2cf5	-0.091882624
169	0xbe4b486a	-0.19851843
170	0xbd24bf39	-0.040221427
171	0xbdcadafb	-0.099050485
172	0xbdb6f976	-0.089343
173	0xbe842230	-0.25807333
174	0xbe59bd3a	-0.2126359
175	0x3e116092	0.14196995
176	0x3f37683e	0.71643436
177	0xbf24ed26	-0.6442436
178	0x3e7315c1	0.23738767
179	0x3cb13b03	0.021634584
180	0x3e1e9cea	0.15489545
181	0xbe77fd1f	-0.24217652
182	0xbe112ba0	-0.14176798
183	0xbe2ea143	-0.17053704
184	0x3dc78772	0.09742631
185	0xbd4dc8e8	-0.050240427
186	0x3dff0876	0.12452786
187	0xbeb46e14	-0.35240233
188	0xbe92e164	-0.28687584
189	0xbf243daa	-0.6415659
190	0xbe6020e9	-0.21887554
191	0x3e6d8aaa	0.23197427
192	0xbd06f34f	-0.03294688
193	0xbe646739	-0.22305001
194	0x3e65597a	0.22397414
195	0x3ea114cc	0.3146118
196	0x3d8cc555	0.068735756
197	0x3e5fd8a0	0.2185998
198	0x3d13b2a6	0.036059044
199	0x3e276008	0.16345227
200	0x3d647bda	0.055782177
201	0x3f04b0c7	0.5183224
202	0xbf2c26fe	-0.67247
203	0xbe182d26	-0.14860973
204	0x3e32196b	0.17392509
205	0x3e3db7f0	0.18527198
206	0x3d2c1b08	0.042017967
207	0xbdfeb091	-0.12436021
208	0x3c9cb26b	0.019128045
209	0x3e6fb5c8	0.23409188
210	0xbe8f09d7	-0.27937195
211	0xbe70e453	-0.23524599
212	0x3d27b049	0.040939603
213	0xbdef0839	-0.1167149
214	0x3e6048dc	0.21902794
215	0x3f3ea784	0.7447436
216	0xbe994216	-0.29933232
217	0x3e6ed2e8	0.23322642
218	0x3da0ce23	0.078518175
219	0xbe238495	-0.15968545
220	0xbde11d8a	-0.10991962
221	0x3e09a8b2	0.13443258
222	0xbe840792	-0.25787026
223	0xbed7bdb7	-0.42136928
224	0x3ea920ab	0.33032736
225	0xbe5e5dc9	-0.21715464
226	0xbe846a70	-0.25862455
227	0xbf12c2ff	-0.5732879
228	0xbe9c122a	-0.30482608
229	0x3eb7be57	0.35887405
230	0xbd1287e0	-0.03577411
231	0xbe511fee	-0.20422336
232	0x3d340d37	0.043957915
233	0x3eda9c91	0.42697576
234	0x3e227d26	0.15868053
235	0x3e4ce352	0.20008591
236	0x3eb23a62	0.34810168
237	0x3e15118e	0.14557478
238	0x3e07db34	0.13267213
239	0x3e9cc3fc	0.30618274
240	0x3f4ce92a	0.8004328
241	0xbf80eda8	-1.0072527
242	0xbe465eb1	-0.1937206
243	0xbe6130a4	-0.21991211
244	0x3d4b9751	0.049704853
245	0x3e126d0c	0.1429941
246	0xbdf376db	-0.11887904
247	0xbdf9d79f	-0.121993296
248	0x3e1cc32e	0.1530883
249	0xbe8bef4e	-0.27331012
250	0xbd973d47	-0.073847346
251	0x3e92288f	0.2854657
252	0xbe5dc98a	-0.21658912
253	0x3f4ed517	0.807939
254	0x3f6f8ea0	0.93577003
255	0xbe1f94bc	-0.15584081

mon.linear_module.U.bias f4 [100]
0	0x3e8cbc68	0.27487493
1	0xbea7e404	-0.3279115
2	0x3f0b3c07	0.5438847
3	0x3df74c49	0.12075097
4	0x3f0312fc	0.5120084
5	0xbc52261b	-0.012826468
6	0x3e879e27	0.26487848
7	0x3e5f5cb6	0.2181271
8	0x3ec0dfb7	0.3767068
9	0xbcb8f9ad	-0.022579992
10	0x3e5287e5	0.20559652
11	0xb797867f	-1.8063232e-05
12	0x3ef713d7	0.48257324
13	0xbe2e1332	-0.1699951
14	0x3e659ae7	0.22422372
15	0x3e966454	0.2937342
16	0xbe2e0916	-0.16995654
17	0xbeb99722	-0.36248118
18	0x3e1a14bb	0.1504697
19	0x3ef3ff58	0.4765575
20	0xbe40eab4	-0.18839532
21	0x3b3b0429	0.0028536415
22	0xbea75f1f	-0.3268976
23	0xbdb030b6	-0.08603041
24	0x3eae0a52	0.3399225
25	0xbdf9be7a	-0.12194534
26	0x3e08c758	0.13357294
27	0x3e761e42	0.2403498
28	0x3ed51bf7	0.41622898
29	0x3e8d9ef0	0.27660322
30	0xbe981ee7	-0.29711077
31	0x3e8e7b31	0.27828363
32	0x3ee25bf0	0.44210768
33	0x3ea6e205	0.32594314
34	0x3c00472f	0.0078294715
35	0x3e9c7d98	0.3056457
36	0x3e829b96	0.25509328
37	0xbe24b228	-0.16083586
38	0x3e298552	0.16554764
39	0x3ed627a3	0.41827115
40	0x3e220baf	0.1582477
41	0x3de4ff30	0.11181486
42	0xbe816177	-0.25269672
43	0xbdb9df23	-0.09075763
44	0x3e723d79	0.23656262
45	0x3e31653f	0.17323779
46	0x3f07763d	0.5291479
47	0x3e52c51d	0.20583005
48	0x3e973850	0.2953515
49	0x3e62c6f9	0.22146215
50	0x3c056f17	0.008144162
51	0x3eedd66e	0.4645266
52	0x3f00545a	0.5012871
53	0x3ea9ab48	0.3313849
54	0x3edf9692	0.43669564
55	0x3ecd74d3	0.40128192
56	0xbdd260c4	-0.10272363
57	0xbece88d4	-0.40338767
58	0xbcf00b13	-0.029302156
59	0x3edb51fc	0.42835987
60	0x3dd50814	0.104019314
61	0x3ec48cd2	0.38388687
62	0x3ef9d0a0	0.4879198
63	0x3f0f71ef	0.56033224
64	0xbe07ca55	-0.13260777
65	0x3e14e90f	0.1454203
66	0xbe549af8	-0.20762241
67	0x3f09f882	0.5389482
68	0x3f11cb60	0.5695095
69	0xbe3131b1	-0.17304112
70	0x3c91d732	0.017802808
71	0xbe1f431e	-0.15552947
72	0x3f044f31	0.51683336
73	0x3e830b0e	0.25594372
74	0xbed60644	-0.41801655
75	0x3eacf45b	0.33780178
76	0x3e8695a1	0.26286033
77	0x3db9a625	0.09064893
78	0x3e21c49d	0.15797658
79	0x3db65381	0.08902646
80	0x3ee1a0fb	0.4406813
81	0xbdecc84f	-0.11561643
82	0x3e599a63	0.212503
83	0x3ef3cc75	0.47616926
84	0x3f2c7d95	0.6737912
85	0xbe4cceee	-0.20000812
86	0x3ec09198	0.3761108
87	0x3ebcd50c	0.36881292
88	0x3f023f50	0.5087786
89	0x3cae2f3b	0.021262756
90	0x3e36036f	0.17774747
91	0x3eb8d01a	0.3609627
92	0x3eb90125	0.36133686
93	0xbe621aba	-0.22080508
94	0xbd6ce1a9	-0.057832394
95	0xbefbd3a5	-0.4918491
96	0xbe97da0d	-0.29658547
97	0x3efc7dd9	0.49314764
98	0x3e59f47f	0.21284674
99	0x3ee41b58	0.44552112

mon.linear_module.A.weight f4 [100, 100]
0	0xbd439091	-0.04774529
1	0xbceca973	-0.028889393
2	0x3ddeded6	0.10882346
3	0x3d82e90b	0.06392106
4	0xbdc49af2	-0.09599866
5	0xbd1b8a56	-0.037973724
6	0x3d8867ed	0.06660447
7	0xbb993f6e	-0.004676751
8	0x3cbf5e03	0.023360258
9	0xbd8448b2	-0.06459178
10	0xbd84414b	-0.06457766
11	0xbd0fbea4	-0.03509392
12	0x3d784c5c	0.060619697
13	0x3b0daf30	0.0021619312
14	0xbd825870	-0.06364524
15	0x3c6d192d	0.014471334
16	0x3d8f500f	0.06997692
17	0xbc95c3a6	-0.018281769
18	0x3d9da639	0.0769772
19	0x3d168496	0.036747538
20	0x3e095269	0.13410343
21	0xbdabe1d7	-0.08392685
22	0x3c9f9fa1	0.019485297
23	0xbc1bdb47	-0.009512729
24	0xbdda7b78	-0.10668081
25	0x3d4975ad	0.04918449
26	0xbd9086ac	-0.070569366
27	0xbcab3b24	-0.020902224
28	0x3e8bed07	0.27329275
29	0xbd7c13ec	-0.061542436
30	0x3d8e8975	0.069598116
31	0xbbe50b0b	-0.006989842
32	0xbb2f040f	-0.00267053
33	0x3c302200	0.010750294
34	0xbd40f222	-0.047105916
35	0x3e00eb05	0.12589653
36	0xbd4c24c1	-0.04983974
37	0xbd227e5c	-0.039671287
38	0x3b798090	0.0038071014
39	0xbdc680ef	-0.09692561
40	0x3dc569eb	0.09639343
41	0xbd42e94e	-0.047585778
42	0xbb8f42a6	-0.004371959
43	0xbd3213e7	-0.04347601
44	0x3d4d2495	0.050083715
45	0xbcb8722d	-0.02251538
46	0x3d87fab7	0.06639617
47	0x3d09a0c2	0.033600576
48	0xbcd10c55	-0.025518576
49	0x3b9753f5	0.0046181628
50	0xbd3ed987	-0.04659417
51	0x3d3ae334	0.045626834
52	0x3d6ff6b6	0.05858489
53	0xbe13d95e	-0.14438388
54	0x3cb05b48	0.021527901
55	0x3d92a280	0.07159901
56	0x3d04e6bd	0.03244661
57	0xbb97cecf	-0.004632808
58	0xbc8236d8	-0.015895292
59	0x3dc87901	0.09788705
60	0xbd3aa0b0	-0.0455634
61	0xbb17ea33	-0.0023180365
62	0x3dc1a633	0.09455528
63	0xbe232a03	-0.15933995
64	0xbd7d9c20	-0.06191647
65	0x3bbc1a17	0.005740415
66	0xbd9b6f86	-0.07589631
67	0xbd427122	-0.047471173
68	0x3ce70512	0.02820066
69	0xbd836f3c	-0.06417701
70	0x3db4071c	0.087904185
71	0x3d3d7a01	0.04625893
72	0x3d88f768	0.06687814
73	0xbcda3188	-0.026634946
74	0x3c2cb32f	0.010540768
75	0xbdb1da8a	-0.08684261
76	0x3c682a62	0.014170261
77	0x3ca145ea	0.019686658
78	0xbce8fe31	-0.02844152
79	0x3dadb45a	0.08481665
80	0xbcbc9b87	-0.02302338
81	0xbcc34c98	-0.023840234
82	0xbca02f6b	-0.01955386
83	0x3dd02536	0.101633474
84	0xbd556823	-0.052101266
85	0x3b45af0d	0.0030164153
86	0xbdc37a6a	-0.09544833
87	0x3cd5af9a	0.02608471
88	0x3d962863	0.07331922
89	0x3cdd14e4	0.0269875
90	0xbd9c009f	-0.07617306
91	0xbd5eea78	-0.054422826
92	0x3c8b83b7	0.01703058
93	0x3b793afd	0.0038029545
94	0xbd233af6	-0.03985115
95	0x39f00373	0.00045778937
96	0x3d92c7a0	0.07166982
97	0xbd84192f	-0.06450116
98	0xbdd016d5	-0.10160605
99	0xbd62fd9f	-0.055417653
100	0xbd536f59	-0.05161986
101	0xbd8d0b7d	-0.06886957
102	0xbd9ccf3d	-0.07656715
103	0xbd021614	-0.031759337
104	0x3db6fce1	0.089349516
105	0xbca165df	-0.019701896
106	0x3ce7f58d	0.02831533
107	0xbd6699a3	-0.056298863
108	0xbcd7ebe0	-0.026357591
109	0xbd33c8fe	-0.043892853
110	0xbd101289	-0.035173927
111	0x3dac2b3e	0.08406685
112	0xbc71df43	-0.014762702
113	0xbbc8be18	-0.0061261766
114	0xbd852ef0	-0.06503093
115	0xbc94668a	-0.0181153
116	0xbc4894c4	-0.0122425
117	0x3dd8f9ed	0.105945446
118	0x3d052e22	0.0325147
119	0x3dd1885d	0.10231087
120	0x3d0b7c58	0.03405413
121	0xbc7d3a57	-0.015455804
122	0x3cea3f67	0.028594686
123	0xbbec7129	-0.007215638
124	0xbdc16912	-0.09443869
125	0xbda61a57	-0.08110493
126	0x3db307c5	0.08741716
127	0x3d2088df	0.03919303
128	0xbc40cd25	-0.01176766
129	0x3de1fd7b	0.11034676
130	0xbd889c1d	-0.06670401
131	0xbd6b8eef	-0.05750936
132	0x3b2f29b5	0.002672774
133	0x3bf18eab	0.0073717437
134	0xbca18d5d	-0.019720728
135	0x3d76ed29	0.060284767
136	0xbd3d7fbf	-0.046264406
137	0x3d84bd83	0.06481459
138	0x3d8cee27	0.068813615
139	0x3cb4b2b5	0.02205787
140	0xbd401042	-0.046890505
141	0x3c11a44b	0.008889268
142	0x3d6f8c1b	0.058483224
143	0x3d80317e	0.0625944
144	0xbdc759df	-0.097339384
145	0xbc892114	-0.016739406
146	0xbd5173c3	-0.05113579
147	0xbcc62b7b	-0.024190655
148	0xbd98c0ca	-0.074586466
149	0xbdd094ba	-0.10184617
150	0x3d2cfb11	0.042231623
151	0x3cd50e1b	0.026007703
152	0x3d122f4d	0.03568964
153	0x3d90fcb4	0.07079449
154	0x3e01658f	0.12636398
155	0x3c86fb61	0.016477289
156	0xbb9b0b23	-0.004731552
157	0xbda20faa	-0.07913144
158	0x3d9af961	0.075670965
159	0x3cfa86b1	0.030581804
160	0x3d73af47	0.05949333
161	0xbcef6eee	-0.0292277
162	0xbd8ea654	-0.06965318
163	0xbd19576d	-0.03743689
164	0x3dcfbd30	0.101435065
165	0xbc9c1c6b	-0.01905652
166	0xbd725e87	-0.05917218
167	0x3cc8637e	0.024461504
168	0xbb39b3a0	-0.0028335825
169	0x3d283cc5	0.04107358
170	0x3dbff113	0.09372153
171	0xbd9fe3a4	-0.07807091
172	0x3dbb9aec	0.091604084
173	0xbd90172c	-0.0703567
174	0xbdca0453	-0.09864106
175	0x3c9d630e	0.019212272
176	0xbd3a3c65	-0.045467753
177	0x3d78bdde	0.060727946
178	0xbcd4959a	-0.025950242
179	0x3cd4f578	0.025995955
180	0x3d8ae5a8	0.06782085
181	0x3c9b3c90	0.018949777
182	0xbc1f9d5f	-0.00974211
183	0xbd73955e	-0.05946862
184	0x3d7e3336	0.062060557
185	0x3d1b5b02	0.03792859
186	0xbddcc628	-0.10779983
187	0xbcecc7e0	-0.028903902
188	0xbe05eb84	-0.13078123
189	0x3d551ae5	0.0520276
190	0x3dc75d20	0.09734559
191	0xbd55ee67	-0.05222931
192	0xbd62a216	-0.05533036
193	0x3c48e0ba	0.01226061
194	0x3cc8d872	0.024517272
195	0xbd3f46f7	-0.046698537
196	0x3d27acba	0.04093621
197	0x3d84842f	0.064705245
198	0x3cf99d3c	0.030470483
199	0x3c802501	0.015642645
200	0xbc8e8da4	-0.017401524
201	0xbdec5ea2	-0.11541487
202	0xbd1e5d73	-0.03866334
203	0x3dafbe79	0.08581252
204	0xbcd782f8	-0.026307568
205	0x3de01e3d	0.109432675
206	0xbdfe9d4f	-0.12432348
207	0xbc62733f	-0.013821422
208	0x3b86be14	0.0041120145
209	0x3dddbc94	0.10826984
210	0x3d1f298d	0.038857985
211	0xbc6e7c73	-0.014556038
212	0x3d704bb5	0.05866595
213	0xbd7ebe5b	-0.062193256
214	0x3d6eaf74	0.058272794
215	0x3d03cb12	0.032176085
216	0x3cf2ac19	0.029623078
217	0xbd4a03c3	-0.049319994
218	0xbdcebec6	-0.10094981
219	0x3c83887a	0.016056288
220	0xbd962ca1	-0.07332731
221	0xbcea0d47	-0.028570784
222	0x3d8c8b23	0.06862476
223	0x3de47691	0.11155427
224	0xbcef2b38	-0.029195413
225	0xbd1980bc	-0.037476286
226	0x39f9f5a4	0.00047675997
227	0xbd0ce520	-0.034398198
228	0xbdecf919	-0.11570949
229	0x3d188e75	0.037245233
230	0xbd0b93c0	-0.034076452
231	0x3d0a000f	0.033691462
232	0xbda58a88	-0.08083063
233	0xbd5e689a	-0.054298975
234	0xbd20c7df	-0.039253112
235	0x3d568b33	0.052378844
236	0xbd3f8303	-0.046755802
237	0x3b92e8f3	0.004483336
238	0xba505544	-0.0007947276
239	0x3c8fcb93	0.017553126
240	0xbd5760fd	-0.05258273
241	0x3dc7e52a	0.097605065
242	0xbd7fd206	-0.062456153
243	0x3c026e4d	0.007960868
244	0xbdb9c671	-0.09071053
245	0x3d97e5e7	0.07416897
246	0x3d04dab2	0.032435127
247	0xbcffbcf6	-0.031218033
248	0xbd8b108d	-0.06790266
249	0x3caff9d3	0.02148143
250	0xbdb6ab3f	-0.08919381
251	0xbd7fa31c	-0.062411413
252	0xbd46c911	-0.048531596
253	0x3de58c54	0.11208406
254	0x3cc8743c	0.024469487
255	0xbc9e94ac	-0.019358002

mon.linear_module.B.weight f4 [100, 100]
0	0xbc16138d	-0.009159935
1	0x3c69fbe9	0.0142812515
2	0xbc77005d	-0.01507577
3	0xbbb2382b	-0.0054388246
4	0xbd505bf1	-0.050868932
5	0x3d525fff	0.05136108
6	0x3d199c46	0.03750255
7	0x3d8cedba	0.0688128
8	0x3db18fbe	0.08669995
9	0x3d929cb0	0.07158792
10	0xbe1997f0	-0.14999366
11	0x3c5457e4	0.012960408
12	0xbd9d8a20	-0.07692361
13	0x3cc15ac7	0.023602856
14	0xbd852619	-0.06501407
15	0x3d953d25	0.07287053
16	0xbbbb40e3	-0.005714522
17	0xbd6017df	-0.054710265
18	0xbdbdc917	-0.092668705
19	0xbd80bcd5	-0.06286017
20	0x3d90f700	0.070783615
21	0xbd74e340	-0.059787035
22	0xbd84f1b5	-0.064914145
23	0x3cf37c18	0.029722258
24	0x3cc75d4f	0.024336485
25	0xbda416ab	-0.08012136
26	0xbbea98d6	-0.0071593327
27	0x3daa1de8	0.083064854
28	0xbd7d0173	-0.06176896
29	0xbd43252e	-0.04764288
30	0x3b6c7401	0.0036079886
31	0x3d6f26f1	0.058386747
32	0x3e0832df	0.13300656
33	0xbc51ca51	-0.012804584
34	0xbcf66d7e	-0.030081507
35	0xbd992c68	-0.07479173
36	0x3d043caf	0.032284435
37	0xbd90095d	-0.07033036
38	0x3ccbcd9f	0.024878321
39	0xbd59941c	-0.053119764
40	0x3e075481	0.1321583
41	0x3cd80d0e	0.026373412
42	0x3d4119a1	0.047143582
43	0x3c917053	0.017753756
44	0xbd917b84	-0.07103637
45	0x3e537303	0.20649342
46	0x3d84c03a	0.06481977
47	0x3d43946f	0.04774898
48	0x3db9e4da	0.09076853
49	0xbd8fdc78	-0.07024473
50	0xbdc0d5c3	-0.09415772
51	0xbd8d8d15	-0.06911675
52	0xbd13ab42	-0.036051996
53	0x3df01ec0	0.11724615
54	0xbd071920	-0.032982945
55	0x3d92d99b	0.07170411
56	0xbd5c48c2	-0.053780325
57	0x3d5ccc8c	0.05390601
58	0x3d3c1bd7	0.045924988
59	0xbbb206b9	-0.0054329303
60	0x3d9eff42	0.0776353
61	0x3d805663	0.06266477
62	0xbcc6a06b	-0.024246415
63	0xbd380b75	-0.0449328
64	0x3c327c9e	0.010893969
65	0x3cc8bf6a	0.024505336
66	0x38974216	7.2125506e-05
67	0xbd6e18da	-0.05812917
68	0x3de31ce3	0.11089494
69	0x3d912702	0.07087518
70	0x3c9d3745	0.019191394
71	0xbd140b22	-0.03614343
72	0x3ceb7e15	0.028746644
73	0xbd939873	-0.07206812
74	0xbdc29723	-0.09501483
75	0xbd5e27b1	-0.05423707
76	0x3d7a6929	0.061135445
77	0xbd2c2f7c	-0.042037472
78	0xbd910fb2	-0.07083072
79	0x3d384783	0.044990074
80	0x3bc1c16a	0.0059129493
81	0xbc6992b3	-0.014256167
82	0x3d9f63c4	0.07782701
83	0xbc3e976f	-0.011632784
84	0xbd8cf486	-0.06882577
85	0x3d418c9a	0.04725323
86	0xbd94ee59	-0.07272024
87	0x3d5ab91d	0.053399194
88	0x3d0a5935	0.03377648
89	0x3d57eda9	0.052716885
90	0xbb95089c	-0.0045481455
91	0xbcadba22	-0.02120692
92	0x3c6c0b72	0.014407026
93	0xbbe2f362	-0.006925986
94	0xbc50fc6f	-0.012755497
95	0xbd009c0e	-0.031398825
96	0x3cc44845	0.023960242
97	0xbc8f2fab	-0.017478785
98	0xbcf8f4d0	-0.030390173
99	0xbe05d98f	-0.13071273
100	0xbd8fb5bc	-0.07017085
101	0xbd8fbbe2	-0.07018258
102	0x3d3bfe5f	0.045896884
103	0x3d1f09d7	0.038827743
104	0x3c21adb9	0.009868079
105	0x3d81e8b8	0.06343216
106	0xbcb22299	-0.021745013
107	0x3d2b4e78	0.04182288
108	0x3def51ef	0.116855495
109	0x3d7b3157	0.06132635
110	0xbd716713	-0.05893619
111	0xbd93b1fb	-0.072116815
112	0x3cea7adf	0.028623043
113	0x3d9cf60e	0.07664119
114	0x3cb543de	0.022127088
115	0xbc9afaef	-0.018918483
116	0x3df71e57	0.12066334
117	0x3dae177a	0.085005715
118	0xbc445f39	-0.0119855935
119	0x3ca8587f	0.02055001
120	0x3a550d0e	0.00081272505
121	0x3db2acb3	0.08724346
122	0xbd065723	-0.032797944
123	0xbd997989	-0.07493884
124	0x3d9437cb	0.07237204
125	0xbd3f0f4c	-0.046645448
126	0x3d66c7e8	0.05634299
127	0xbd8c6b38	-0.06856388
128	0x3da3c53e	0.07996605
129	0xbd88f57d	-0.06687448
130	0x3dfab1aa	0.12240918
131	0x3d1b640d	0.037937213
132	0xbdd3ae25	-0.1033595
133	0x3d072488	0.032993823
134	0x3c994d90	0.018713742
135	0xbdc32bfe	-0.09529875
136	0xbd9676ef	-0.073469035
137	0xbce8f959	-0.02843921
138	0xbd7ff010	-0.0624848
139	0x3c2bf669	0.0104957605
140	0x3d678068	0.056518942
141	0xbdba392d	-0.09092937
142	0x3d06aa69	0.03287736
143	0x3dac903b	0.08425947
144	0xbd896515	-0.06708733
145	0x3be4d75f	0.006983682
146	0xbdb39b32	-0.087698355
147	0xbdc61ae2	-0.09673096
148	0x3d8b08b7	0.067887716
149	0x3dc82f4f	0.097746484
150	0x3d74a705	0.059729595
151	0xbd13ac9b	-0.03605328
152	0x3b737e39	0.0037154092
153	0x3d5fdaba	0.054651953
154	0xbd8817cf	-0.06645166
155	0xbca04eab	-0.019568762
156	0xbca5ebc3	-0.020254022
157	0x3d4a600f	0.049408015
158	0xbd0c15ef	-0.034200605
159	0x3d4f5f35	0.050627906
160	0xbd71732a	-0.05894772
161	0x3dd3198f	0.10307609
162	0xbc8363cb	-0.016038796
163	0x3d4dd754	0.05025418
164	0x3e0217ff	0.12704466
165	0x3daa673d	0.083204724
166	0xbd47fe34	-0.04882641
167	0xbd5abf99	-0.053405378
168	0xbd703408	-0.05864337
169	0xbc867c72	-0.016416762
170	0xbd458263	-0.04822005
171	0x3dc0df8b	0.094176374
172	0xbd50ad54	-0.05094655
173	0x3d3818b2	0.044945426
174	0xbd02afdb	-0.03190599
175	0xbcaa71d3	-0.020806229
176	0x3d5cdf50	0.053923905
177	0x3dad5104	0.08462718
178	0x3d7ef99f	0.062249776
179	0x3d74e99f	0.05979311
180	0xbd11c308	-0.035586387
181	0x3d1cc03e	0.038269274
182	0xbc92bda6	-0.017912697
183	0xbd66bc3b	-0.056331854
184	0xbd713e83	-0.058897506
185	0x3dfa2b19	0.122152515
186	0x3d4226f8	0.047400445
187	0x3c198e98	0.009372376
188	0xbb2ff27b	-0.002684741
189	0x3d5c2ab1	0.05375165
190	0xbd9771ff	-0.0739479
191	0x3dad4c3e	0.08461808
192	0x3a93b99d	0.0011270527
193	0x3d8fcbc2	0.070212856
194	0x3d135259	0.035967205
195	0x3c72e295	0.014824529
196	0xbddb950c	-0.10721788
197	0xbd3799d0	-0.04482442
198	0xbd41ce45	-0.047315855
199	0xbd8ea1d0	-0.06964457
200	0xbc026da6	-0.007960713
201	0x3c601728	0.013677396
202	0xbd1393e3	-0.036029708
203	0x3c0f7aee	0.008757336
204	0xbd556ca7	-0.052105572
205	0x3ca8e590	0.020617276
206	0x3b8f81ab	0.0043794713
207	0x3dac3e3e	0.08410309
208	0xbd9dc5e5	-0.07703761
209	0xbd552e55	-0.05204614
210	0x3d5293e6	0.05141058
211	0x3d8cab20	0.06868577
212	0xbcec3a3f	-0.028836368
213	0xbdc820e4	-0.097718984
214	0x3d3a4eb5	0.045485217
215	0xbd9a5c13	-0.07537093
216	0x3dc240b5	0.09484998
217	0x3d956592	0.072947636
218	0x3e337cf3	0.17528133
219	0x3dacc009	0.08435065
220	0x3c6d8039	0.014495903
221	0xbd297320	-0.041369557
222	0x3d005205	0.03132822
223	0xbe412b7f	-0.18864249
224	0xbdba7e1b	-0.09106084
225	0xbd634da8	-0.05549398
226	0x3e48fabc	0.19626898
227	0x3d355f26	0.044280194
228	0xbd56cb3f	-0.052439924
229	0x3cdac2aa	0.026704151
230	0x3e38f32a	0.1806151
231	0x3de54c8b	0.1119624
232	0xb94e6c19	-0.0001968596
233	0xbdc0d870	-0.09416282
234	0xbdc41427	-0.09574156
235	0xbda9f68a	-0.08298977
236	0xbe0d7124	-0.13812691
237	0x3db563ee	0.08856951
238	0x3de5dfca	0.11224325
239	0xbd0be8bf	-0.03415751
240	0x3d0462cc	0.032320783
241	0xbe04e057	-0.12976204
242	0xbe20d7de	-0.15707347
243	0x3e5b7ce1	0.21434356
244	0x3d9743c5	0.07385973
245	0x3d79268f	0.060827788
246	0x3c04bf1a	0.008102203
247	0x3de66580	0.11249828
248	0x3e077e72	0.13231829
249	0x3d0a5481	0.033771995
250	0xbdb7855a	-0.08960982
251	0x3d5cdd39	0.053921912
252	0xbd5ff482	-0.05467654
253	0x3e281880	0.16415596
254	0x3e0102aa	0.12598673
255	0x3d8af06e	0.067841396

Wout.weight f4 [4, 100]
0	0xbd97ebae	-0.07417999
1	0x3d0bff8d	0.03417926
2	0xbe3da327	-0.18519269
3	0xbda98ccd	-0.08278809
4	0xbc9a0238	-0.018799886
5	0x3c245199	0.01002922
6	0x3dfc40fe	0.12317084
7	0x3e0df494	0.1386283
8	0xbc9cf1e5	-0.019158313
9	0xbe0c4f37	-0.13702093
10	0x3c0aa093	0.008461135
11	0x3e3c091e	0.18362853
12	0x3e002ed7	0.12517868
13	0xbc96659d	-0.018359
14	0x3db9f461	0.09079815
15	0x3e0f344f	0.13984798
16	0xbd0a0b36	-0.033702098
17	0x3e1d3637	0.15352713
18	0x3e5bc34b	0.21461217
19	0xbe5b3309	-0.21406187
20	0x3dfe4f4e	0.1241747
21	0x3d4ec413	0.05047996
22	0xbdeb1626	-0.11478834
23	0x3dba92f4	0.0911006
24	0xbe21fd6c	-0.15819329
25	0xbd88f920	-0.06688142
26	0x3dd34902	0.103166595
27	0x3e8b303c	0.27185237
28	0x3dea06e2	0.11427094
29	0x3e47a907	0.19498073
30	0xbe24dff5	-0.16101058
31	0x3e4805d2	0.1953347
32	0xbdba4665	-0.09095458
33	0xbd469a2e	-0.04848688
34	0xbe137ed6	-0.14403853
35	0x3deb1c77	0.114800386
36	0x3d82ea46	0.0639234
37	0xbd57bdf0	-0.052671373
38	0x3e091701	0.13387682
39	0xbdfff4fa	-0.124978974
40	0xbd1db501	-0.038502697
41	0x3d41bee4	0.047301188
42	0xbddafd3f	-0.10692834
43	0x3c247e07	0.010039813
44	0xbdaea101	-0.08526803
45	0x3e9477c7	0.28997633
46	0xbc5f5b34	-0.013632584
47	0x3d5816fa	0.052756287
48	0x3e3e598d	0.18588848
49	0x3dac0839	0.08400006
50	0xba8a5259	-0.0010553106
51	0xbe15920b	-0.14606492
52	0x3d271b17	0.04079732
53	0x3e2b633a	0.1673707
54	0xbe55f0f4	-0.20892698
55	0xbe016844	-0.1263743
56	0xbc359d45	-0.011084859
57	0x3ddfe12c	0.1093162
58	0x3e3d19f6	0.18466935
59	0xbe5a8797	-0.21340786
60	0x3c63ee8f	0.013911857
61	0xbe09eafe	-0.13468549
62	0xbc874ce4	-0.016516156
63	0x3e6e9b49	0.23301424
64	0xbd6c2b8f	-0.05765873
65	0xbe14cb21	-0.14530613
66	0xbd9f2889	-0.07771403
67	0xbe981bf9	-0.2970884
68	0x3e7aff2c	0.24511403
69	0x3e4193ef	0.18904088
70	0xbddf2be0	-0.1089704
71	0x3e2c96c9	0.16854395
72	0xbe498efa	-0.19683447
73	0x3e0cedf1	0.13762642
74	0x3e09007c	0.13379091
75	0xbd9f5e49	-0.07781655
76	0x3a305bcf	0.0006727548
77	0x3e2b8918	0.16751516
78	0xbe00368a	-0.12520805
79	0x3defa4af	0.11701333
80	0x3e163454	0.14668399
81	0x3dbabe76	0.09118359
82	0x3d237df2	0.039915033
83	0x3de8018f	0.11328422
84	0xbe323844	-0.17404276
85	0x3db77a2a	0.08958848
86	0xbe0dd41b	-0.13850443
87	0xbe2e69a5	-0.17032488
88	0x3cfb7158	0.030693695
89	0xbe4b3823	-0.19845633
90	0x3dc1a6ff	0.0945568
91	0xbe090827	-0.13382016
92	0xbdf26acb	-0.118367754
93	0xbdac7bdc	-0.08422062
94	0x3dab1ea3	0.08355453
95	0xbdc5240c	-0.09626016
96	0x3cb97608	0.02263929
97	0xbccabd02	-0.02474833
98	0xbc9ef9db	-0.01940625
99	0xbe72c3c6	-0.23707494
100	0xbe3b3b14	-0.18284255
101	0xbe153790	-0.14571977
102	0xbe815376	-0.25258988
103	0x3d819b30	0.06328428
104	0xbd81da49	-0.06340463
105	0xbd8e8f6a	-0.06960948
106	0x3caf210b	0.02137806
107	0x3d5ba3a6	0.053622864
108	0xbe0888ac	-0.13333386
109	0x3d69688e	0.056984477
110	0x3e23132d	0.15925284
111	0xbe2a3cc2	-0.1662474
112	0x3c1cb348	0.009564228
113	0xbc970860	-0.01843661
114	0x3ccbdc62	0.02488536
115	0xbd9ae301	-0.07562829
116	0x3de298d5	0.11064307
117	0xbcb0cc2d	-0.021581734
118	0x3daece0e	0.085353956
119	0x3e446b85	0.1918164
120	0x3da4b4d5	0.080423035
121	0x3dfbb90f	0.122911565
122	0x3df45f9d	0.11932299
123	0xbcc29705	-0.023753652
124	0x3da05679	0.07828993
125	0x3ba646fb	0.0050743795
126	0x3dcfdb3e	0.10149239
127	0xbe8e6e2f	-0.27818438
128	0xbd120d7e	-0.0356574
129	0x3b892ec9	0.0041864854
130	0xbd1e69a4	-0.038674966
131	0xbe0967b5	-0.13418467
132	0x3e168068	0.1469742
133	0xbdf12f09	-0.11776549
134	0xbe439c90	-0.19102693
135	0xbe20663b	-0.15663998
136	0x3d5d4d9a	0.054029085
137	0x3d2184d4	0.039433315
138	0x3e0666ef	0.13125204
139	0x3e3acd7e	0.18242452
140	0xbd70ff8c	-0.05883746
141	0xbe06fad9	-0.13181628
142	0xbe38293e	-0.17984483
143	0x3e48e589	0.1961881
144	0x3e477f2d	0.19482107
145	0x3e9e15dd	0.30876055
146	0xbd2bb21d	-0.04191791
147	0xbe2d5638	-0.16927421
148	0xbdc3b08b	-0.09555157
149	0x3da1d0e8	0.07901174
150	0xbdee0ffe	-0.11624144
151	0x3d27baad	0.040949512
152	0xbe056f9d	-0.13030858
153	0x3cc2b111	0.023766072
154	0xbe400cfa	-0.1875495
155	0x3e021a8c	0.1270544
156	0x3e27dbb4	0.16392404
157	0x3dd845d6	0.10560195
158	0xbd856ea6	-0.06515245
159	0x3deaa136	0.1145653
160	0x3e0e64c4	0.13905627
161	0x3d0e6cb8	0.03477165
162	0x3c8642e7	0.016389323
163	0xbe7515e0	-0.23934126
164	0x3ca97d4b	0.020689627
165	0xbdd6ee1b	-0.10494634
166	0x3dec4387	0.11536317
167	0xbeb0bdc1	-0.3451977
168	0x3daf7afb	0.085683785
169	0x3e2afca6	0.1669794
170	0xbda274e8	-0.07932454
171	0xbd81d171	-0.06338776
172	0x3e143cf9	0.14476384
173	0xbde407cf	-0.11134302
174	0x3c65bec4	0.014022533
175	0xbdf354a3	-0.118813775
176	0xbe1b3f55	-0.15160878
177	0x3dec6a57	0.1154372
178	0x3ca296de	0.01984733
179	0xbdfe94a4	-0.12430695
180	0x3d9fa618	0.07795352
181	0xbd90fb9a	-0.07079239
182	0x3e88e2f1	0.26735643
183	0x3dd49f04	0.10381892
184	0xbe162bc5	-0.14665134
185	0xbcf089d6	-0.0293626
186	0xbd85b7bb	-0.065291844
187	0x3da70329	0.081548996
188	0x3e47f522	0.19527104
189	0x3d7286d8	0.05921063
190	0xbdb966cc	-0.0905281
191	0x3d5fdd87	0.054654624
192	0xbdca1753	-0.0986773
193	0xbdcb0721	-0.09913469
194	0x3df43672	0.11924447
195	0x3c1c14da	0.009526456
196	0xbe25f119	-0.16205253
197	0xbdde9b97	-0.1086952
198	0x3ea1ee7c	0.31627262
199	0x3ea8c7ae	0.32964844
200	0x3c79505e	0.015216915
201	0xbdb58fa8	-0.08865291
202	0xbd87da04	-0.0663338
203	0xbd70c112	-0.058777876
204	0x3e9fbe27	0.31199762
205	0x3dbc2c17	0.09188097
206	0x3e2d110a	0.16901031
207	0xbd0ebf0f	-0.034850176
208	0xbd569f1b	-0.05239783
209	0xbd39817b	-0.045289498
210	0x3dce676c	0.1007832
211	0x3da669d6	0.08125655
212	0x3e199b90	0.15000749
213	0xbddd2738	-0.10798496
214	0xbd4c8617	-0.049932566
215	0x3dd44745	0.10365156
216	0xbe05527c	-0.13019747
217	0xbe012590	-0.12611985
218	0x3e90a99d	0.28254405
219	0xbcc50a33	-0.024052715
220	0xbdf06b25	-0.11739186
221	0x3cfd2959	0.030903505
222	0xbd787d2b	-0.060666244
223	0xbd4588c4	-0.048226133
224	0xbdebd629	-0.11515457
225	0x3c43f623	0.011960539
226	0xbd6d1757	-0.057883587
227	0xbdb06993	-0.08613887
228	0xb9e12f42	-0.00042950554
229	0x3dc8f6ba	0.09812684
230	0xbc1fe693	-0.009759563
231	0x3dc23126	0.094820306
232	0x3e221d52	0.15831497
233	0x3d59517f	0.053056236
234	0x3dda7166	0.1066616
235	0x3d93b02a	0.07211335
236	0xbd468b68	-0.048472792
237	0xbdef5b53	-0.116873406
238	0xbccfaaf1	-0.025350066
239	0x3e6ac8a0	0.22928095
240	0x3cbe3b10	0.023221523
241	0x3e40c4b0	0.1882503
242	0xbd1ebaf0	-0.038752496
243	0xbac1cc6a	-0.0014785652
244	0x3c1e1136	0.009647658
245	0x3d823937	0.06358569
246	0x3e74ee62	0.23919061
247	0x3e25cd55	0.16191609
248	0x3da2fc17	0.079582386
249	0xbca9cf80	-0.020728827
250	0xbde93ade	-0.11388181
251	0x3e0e54ae	0.1389949
252	0x3e941b4d	0.2892708
253	0x3e4f4236	0.20240101
254	0x3e5607f1	0.20901467
255	0x3e410482	0.18849376

Wout.bias f4 [4]
0	0xbc8a6259	-0.016892599
1	0x3ce4bedb	0.027923038
2	0x3e3a872c	0.18215626
3	0xbda446cb	-0.08021315
