newton_raphson/newton_raphson/holybro_lstm.pt (torch, 620955 bytes, 22 tensors)

lstm.weight_ih_l0 f4 [256, 13]
000000 c3 e4 b2 be 4d 29 c4 bd 2f 6f 16 bf da 78 67 be
       -0.34940156 -0.0957819 -0.587634 -0.22604695
000010 c6 cc b6 bd fc 15 9f be 2d 8c b7 be b4 ad 95 be
       -0.08925776 -0.3107146 -0.35849133 -0.29234087
000020 72 2f 69 3e d4 7a 5e 3e b4 ff b6 3c a3 de e5 bd
       0.22772005 0.21726543 0.022338726 -0.11224105
000030 84 0a 27 3f dd 99 c4 bc b9 25 87 bd b3 dc cf be
       0.6525042 -0.023999149 -0.06598992 -0.40598068
000040 f3 26 8f 3d a3 40 84 3d 0f f9 87 3c fc ae 82 3c
       0.06989851 0.06457641 0.016598253 0.01595258
000050 09 07 0d 3f 1b 76 46 bf bc 4c 05 3e 6b e9 99 3e
       0.5508886 -0.77523965 0.13017553 0.30060896
000060 ae 33 f5 3d 9c eb 2c bf f9 e8 85 3e 56 78 b0 3d
       0.11972748 -0.6754701 0.26154307 0.08616702
000070 c8 9b 28 be bb 63 6a 3e 6e c7 85 3d 1c 47 04 be
       -0.16465676 0.22889607 0.06532179 -0.12917751
000080 90 e0 2f 3f d2 4d 2d bf 70 6c 0f 3f 93 17 82 3b
       0.6870203 -0.6769687 0.5602484 0.0039700954
000090 a3 36 db 3e e7 d7 6b bc d8 84 e6 3e 3e 0a 88 3e
       0.42815122 -0.014394737 0.45023227 0.26570314
0000a0 78 44 95 3d e9 98 de be 45 fa a1 3e 48 48 54 3d
       0.0728845 -0.43476036 0.31636253 0.051826745
0000b0 9c 73 1e be ff 5b 3e 3e 13 ec 97 3e 1a 04 7f 3c
       -0.15473789 0.18589781 0.29672298 0.015564943
0000c0 ef 97 0b 3e ef 31 61 be ca 4f d3 bd a2 87 da 3d
       0.13632177 -0.21991704 -0.10317953 0.10670401
0000d0 00 34 1f be 6f e9 34 3d eb 11 94 3d f4 32 03 be
       -0.1554718 0.044167932 0.0722998 -0.12812406
0000e0 2d ee d5 3c 71 3f c8 3c 5b 2a 53 3e c7 5e 88 3f
       0.026114548 0.024444314 0.20621626 1.0653924
0000f0 53 7d 18 be 58 d4 91 bd a5 4f b2 3b 21 70 99 3d
       -0.14891557 -0.071205795 0.0054416233 0.0749209
000100 08 d5 70 bd 93 1b f1 bd ea c6 07 3d 40 2c b0 bd
       -0.058796912 -0.117728375 0.033148684 -0.0860219
000110 80 1d 0f 3c 46 42 45 3c 75 8c 37 3e e0 3a 0e bf
       0.008735061 0.012039727 0.17924674 -0.55558586
000120 55 ab 79 3f 54 2b a2 3e a6 d4 5a bd 17 15 f3 bd
       0.97527057 0.31673682 -0.053425454 -0.11869257
000130 7f f0 11 3e 35 e1 54 3e 7c c8 fc bd f4 a9 4a 3d
       0.14251898 0.20789035 -0.12342927 0.049478486
000140 ad 9e 12 3e 9e 02 9f bd 5a 67 f2 3c a6 71 2f 3e
       0.14318343 -0.07764171 0.029590297 0.17133197
000150 4e 70 97 3e 85 55 8f bf 9d fd 24 3e 56 3a cf bd
       0.2957787 -1.1197973 0.16112371 -0.101185486
000160 ea 56 af 3e 12 07 9a be 1b e1 4a 3e 2b 58 64 3e
       0.34245998 -0.3008352 0.19812433 0.22299258
000170 a6 87 96 bb e3 ba 25 be 6a c9 23 3e b8 96 48 bd
       -0.0045938073 -0.16184573 0.15994802 -0.04897186
000180 83 6c 39 bc 2a 9f 7a bf c8 9b 7b 3f e3 cd 1d bf
       -0.011317375 -0.97899115 0.9828458 -0.61642283
000190 95 2a ec bb f2 3d c1 bd a9 26 d8 3e aa 83 50 be
       -0.0072072246 -0.09435643 0.42216995 -0.20362726
0001a0 e7 de 0c be c2 e3 f2 3b 86 6a a0 be 9c 77 90 bd
       -0.13756905 0.0074124048 -0.3133127 -0.07054064
0001b0 21 9e 90 3d 98 a4 6f be d4 32 cf 3d b9 bb 50 bf
       0.07061411 -0.23402631 0.101171166 -0.8153644
0001c0 c1 3b ea 3d 28 2e bf 3c 57 6c b2 3e 1b 96 9a be
       0.114371784 0.023337439 0.34848282 -0.30192646
0001d0 ec cb 2e 3e 33 09 b9 bd ab d8 72 be 44 37 89 be
       0.17069978 -0.09034958 -0.23715465 -0.26799977
0001e0 06 01 d8 3d be a7 27 be cc cb 8c 3d f9 97 87 3f
       0.1054707 -0.16372582 0.06874809 1.0593253
0001f0 94 5d ee 3e 7d 2e 9d 3d a3 b4 13 3d b4 92 42 3e
       0.4655577 0.076748826 0.03606094 0.19001275
000200 a0 23 ca 3b 1c 4a 85 be 7d 0c af 3c 66 56 93 bd
       0.0061687976 -0.26033103 0.02136826 -0.071942136
000210 76 64 88 be 86 9a 3d bd 49 2f 53 bd 4f 79 3f 3d
       -0.26639146 -0.046289943 -0.051558767 0.04674655
000220 dd 24 47 3e ad 5e 6b be 68 23 0a be 85 1e c6 3e
       0.19447656 -0.22985335 -0.13490069 0.3869516
000230 56 65 69 3d d1 d0 83 3c 0e c8 29 be 32 29 02 3e
       0.056981407 0.016090782 -0.16580221 0.12711027
000240 b5 cb d4 3d 85 31 00 3d a4 af 9f 3d bf fa 75 3d
       0.103904165 0.031297226 0.07797173 0.060053583
000250 cd ac 04 3e 52 be 99 3d 7d 0b 3a 3f 4a ae 18 bf
       0.12956543 0.07507004 0.7267378 -0.59640944
000260 73 b6 23 bd b1 f7 49 3e f3 3d 4e 3e 60 8e d4 be
       -0.03996892 0.19723393 0.20140819 -0.41514874
000270 3f a2 07 3e 2e 03 89 3e 99 9b 81 bd e9 63 fb 3d
       0.13245486 0.26760238 -0.06328506 0.12274916
000280 94 f1 79 3e c2 fb d4 bd 3b e3 4d 3f bc b1 2d bf
       0.24408561 -0.103995815 0.8042485 -0.67849326
000290 ed 50 c1 be 25 ef b4 ba 47 b9 8e 3b 78 8e 4e be
       -0.37757054 -0.0013804181 0.004355583 -0.20171535
0002a0 0f 43 84 be e1 c7 0b 3d d5 76 1d 3e ca 11 52 3e
       -0.25832412 0.034126166 0.15377362 0.20514598
0002b0 5b 1e 3e 3d ed 1d 1a 3e cd 3d 1a 3e 46 af 12 3f
       0.046415668 0.15050478 0.15062638 0.57298696
0002c0 99 a9 d4 be 13 1f b6 bd 72 76 21 bd 10 14 10 3e
       -0.41535643 -0.08892646 -0.0394196 0.14070153
0002d0 67 ed d2 bd 44 b5 4b 3e ce 3b 69 3e 56 78 36 be
       -0.10299187 0.19893366 0.2277672 -0.17819342
0002e0 1f 7c 23 bf 7b a4 9c 3d a1 24 85 bc 34 9f c1 be
       -0.6386127 0.0764856 -0.016252818 -0.37816775
0002f0 bc 32 4d 3d 02 96 7f be a8 ea 21 bd 43 d0 3f 3e
       0.050097212 -0.24959567 -0.039530426 0.1873179
000300 8f de 17 be 75 98 2f bd 36 f5 de bd 6c 69 28 3d
       -0.14830993 -0.042870004 -0.10886614 0.041116163
000310 34 51 69 be f0 e3 16 bd c7 1d 57 bd fc 8e e9 bd
       -0.22784883 -0.036838472 -0.052518632 -0.11404225
000320 de f6 ff bd 3b 52 bf bf 11 0a 69 bf a6 3a 1a bf
       -0.12498258 -1.494697 -0.91030985 -0.6024574
000330 45 ee ae bb 70 34 aa be e7 a4 d0 bd 26 d3 a8 be
       -0.0053384625 -0.33243132 -0.101877026 -0.32973593
000340 f0 74 88 bc c8 cc 59 3d ac 89 bc 3c 5e 0f 89 3c
       -0.016657323 0.05317381 0.023014866 0.01673096
000350 f3 ab 6c 3d 9d c8 b2 3c d4 21 68 3f 75 c8 97 3f
       0.05778117 0.021824175 0.9067662 1.185805
000360 de cf bf bf 94 7b eb 3c 71 8c a1 3e 35 30 51 3e
       -1.4985311 0.02874545 0.3155246 0.20428546
000370 0d 54 a4 be 74 1b d6 3d c1 9c 7a ba 18 e5 13 be
       -0.32095376 0.10454455 -0.00095601013 -0.14442861
000380 d0 e0 0b 3e dd f5 a9 bd 49 7d 4c be f5 11 ed 3e
       0.13659978 -0.08298848 -0.19969667 0.46302763
000390 42 53 a0 be 46 a1 ef be 04 92 40 3d 65 b2 a9 3e
       -0.3131352 -0.4680273 0.04701425 0.33143917
0003a0 ae 07 ae ba 3e 5b 93 be bf 37 21 3d 6a 52 95 3d
       -0.0013277435 -0.2878055 0.039359804 0.0729111
0003b0 90 db 1d 3d 57 e1 3d 3d 78 b3 8a 3d a7 5d 89 3d
       0.03853947 0.04635748 0.06772512 0.06707316
0003c0 6b 56 9f 3f bc ab 15 3e c3 56 aa 3f 38 82 d6 3c
       1.2448248 0.14616293 1.3307728 0.02618514
0003d0 e1 d2 ac 3e 87 cd 2e 3e 5a 42 86 3c 4e e1 1d 3f
       0.33754638 0.1707059 0.01638906 0.6167191
0003e0 81 2d 13 bd 9c 3c cb be b9 22 d5 3e 94 58 25 3d
       -0.035932068 -0.3969468 0.41628054 0.040367678
0003f0 72 d3 a2 be f6 df a4 3d a2 5b d0 3e f3 1f 01 3e
       -0.31801945 0.0805053 0.4069491 0.12609844

lstm.weight_hh_l0 f4 [256, 64]
000000 01 08 0c be 79 4c 54 bd 83 d4 8a 3d 3e 3c d2 bd
       -0.13674928 -0.051830743 0.06778815 -0.102653965
000010 ac 32 2d be 90 c1 7a 3d 72 d7 d4 bd cf 45 03 3d
       -0.16913861 0.06121975 -0.103926554 0.032048997
000020 21 27 06 3e 39 3c 97 bc bb 6f d0 3c 3f e0 56 3e
       0.13100864 -0.018461334 0.025443902 0.2098398
000030 f7 38 95 3d 94 56 39 3c 47 7f 12 3e 1a 54 fe bd
       0.07286256 0.011312146 0.14306365 -0.12418385
000040 5a b6 ba 3d 8a 2f 6d bd 17 b5 39 3d bf d5 7b be
       0.09116812 -0.057906665 0.045338716 -0.24593256
000050 e2 48 a1 3d de 19 a0 bd 83 df 29 be 05 7d fc bd
       0.078752294 -0.07817434 -0.16589169 -0.12328533
000060 84 b4 1c bd c6 90 a9 bd dd 8b 27 3e 6d 0d 86 ba
       -0.03825809 -0.082795665 0.16361947 -0.001022739
000070 c0 a8 15 3e b6 86 0b 3e ca a0 e0 3d 96 fc 51 3e
       0.14615154 0.13625607 0.10968168 0.2050651
000080 93 54 08 3c 9f 95 c9 3d 38 56 ff 3d 60 8f 05 3d
       0.008320945 0.09842991 0.12467617 0.032607436
000090 2b f1 9f bd c6 a0 b6 bd 50 30 d1 3d 0c d2 05 be
       -0.07809671 -0.08917384 0.10214293 -0.13068408
0000a0 c1 fd 99 3d eb 6e 23 3e 5d 8c 71 3e 8b 8e 01 be
       0.07519103 0.1596028 0.235887 -0.12652032
0000b0 21 f0 e8 bd e3 d8 3b 3e 7d 9c 4f 3e 08 1c 18 be
       -0.11373926 0.18344454 0.2027454 -0.14854443
0000c0 ec fc ce 3b be 32 c7 3c e7 fe fe 3d b7 75 dd bd
       0.0063167717 0.024316188 0.124509625 -0.10813468
0000d0 cd 39 e9 3d 7c 24 3c 3e 52 10 db 3d f9 c0 4f be
       0.11387978 0.18373293 0.10696472 -0.20288457
0000e0 0a 18 39 3d 60 67 2b 3d 89 96 38 be 1d 14 35 3e
       0.04518894 0.041846633 -0.18026175 0.17683454
0000f0 a4 23 dc 3c 96 5f 6d 3e 16 ca 09 be a1 05 44 3e
       0.026872464 0.23180994 -0.13455996 0.19142772
000100 86 d0 fd 3d 52 3c 06 bd 8a 48 ac 3b 6a b1 ab 3d
       0.12393288 -0.03277237 0.005257671 0.083834484
000110 c5 14 ef 3d c8 0a 29 3d ee 28 5e 3e 00 7c 7b 3d
       0.11673883 0.041270047 0.21695301 0.061397552
000120 e7 a9 c8 3d 1e 86 c6 3d 84 31 a4 bd 3f a4 01 be
       0.09798031 0.096935496 -0.08017257 -0.12660311
000130 aa 81 d6 3d 0e 59 cc 3c 36 c7 58 3c b6 ac fa bd
       0.1047395 0.024944808 0.013231089 -0.12239973
000140 4a c3 f3 3d f4 74 11 3b 7f 03 70 bd 7c 5e 8b 3d
       0.11902483 0.0022194954 -0.058597084 0.06805131
000150 81 c5 91 bb d3 f1 3e 3d 52 5b 74 bd 23 1c 29 bd
       -0.004448593 0.04661734 -0.059657402 -0.0412866
000160 c1 b6 4a bc e9 cd c4 3d 0b 2a 0b 3e 21 87 18 3c
       -0.0123726735 0.09609587 0.13590257 0.009309561
000170 e6 76 8e bd 5d db 35 3d d7 b8 c0 3c 1c d7 19 3e
       -0.06956272 0.044398654 0.023525639 0.15023464
000180 34 8c c2 bd 62 36 e5 3d 8e 33 de bc 93 4a e2 bd
       -0.09499398 0.11192013 -0.027124193 -0.1104938
000190 45 92 41 3e 52 a9 dd bd ad 6a 87 bd 71 2d ca bc
       0.18903454 -0.10823311 -0.06612144 -0.024679871
0001a0 05 16 af bd 9a 5d 88 3c d1 55 65 bd 6e ee ad 3d
       -0.08549122 0.016646195 -0.055990044 0.084927425
0001b0 fd ac e1 3d 1f 6f e4 bc 22 51 63 be ee c6 ef 3d
       0.11019323 -0.027885018 -0.22198918 0.11707865
0001c0 76 1d d4 bd a2 12 d5 3c 6e 00 2c 3e 3a c1 79 bc
       -0.10357182 0.026009861 0.16797039 -0.015243823
0001d0 36 5a 80 3d f8 00 a3 bd 40 c3 04 3c b7 cb 35 bd
       0.06267206 -0.07959169 0.008103192 -0.04438373
0001e0 66 ce 23 be 58 20 a1 bc 2b d4 ed bd d7 fb 0a bd
       -0.15996704 -0.019668743 -0.116127335 -0.03393158
0001f0 d2 d0 c2 3d 57 17 72 3d a4 4f cb bc 65 7c 03 be
       0.095124856 0.05910429 -0.024818249 -0.12840421
000200 42 35 d3 3d c4 d6 61 3d db 0a ca bd 45 11 eb 3d
       0.103128925 0.055136457 -0.09865352 0.11477903
000210 92 61 3c 3d bd 55 db 3d 52 47 03 be 91 18 a6 3d
       0.045991488 0.10709713 -0.12820175 0.081101544
000220 e0 88 c6 bc 34 81 13 bd f6 2c ac 3d 0a dc b1 bd
       -0.024235189 -0.03601189 0.08407013 -0.08684547
000230 39 1c ab bc 3b 5c f2 bc 55 a5 98 bd 3d 5d c4 bd
       -0.020887481 -0.029584995 -0.074534096 -0.09588096
000240 0f 23 1e bb 48 d7 f7 3d 77 e4 c1 3c bf ca 8f bd
       -0.0024129783 0.121016085 0.02366851 -0.070210926
000250 ab f5 f3 3c 85 48 b4 3d 89 9a a4 bd ba c9 24 bd
       0.02978023 0.088028945 -0.08037288 -0.040231444
000260 cf a8 b6 bb 93 5d 01 be 5c ca e0 bc 6c 1e cc 3d
       -0.005574323 -0.12633352 -0.027440242 0.0996674
000270 e5 b1 26 3c dc a1 20 3d f6 96 56 3d 82 78 b9 bd
       0.010174249 0.03921686 0.05239006 -0.09056188
000280 a0 5d fd 3d b5 8e 66 3d 53 41 be 3d 4b ac 34 3d
       0.12371373 0.05628844 0.09289803 0.044109624
000290 fa 22 89 bd e5 d5 9e bd 5d 6b c8 bd 8a d9 50 bb
       -0.066961244 -0.07755641 -0.09786103 -0.0031867945
0002a0 5b a9 6e 3b 03 a8 82 bd 8f ef 58 bd 07 a2 bf bb
       0.0036416862 -0.06379702 -0.052962836 -0.0058481726
0002b0 50 d5 80 3c 88 74 04 be 78 d6 a9 bd b0 3b 1e 3e
       0.015726715 -0.12935078 -0.0829286 0.15452456
0002c0 e9 4e 5a 3d 2a af ab 3c ad ba fd bd 07 ce e0 bd
       0.05329791 0.020957548 -0.12389121 -0.109767966
0002d0 2d 77 65 3d 34 9a 21 bd 47 89 b9 3c a2 6f a2 bd
       0.056021858 -0.0394537 0.022648467 -0.079314485
0002e0 8c 68 e9 bd 76 bf c0 3d 0a c6 89 3c f0 e0 4b 3d
       -0.11396894 0.09411518 0.016818065 0.049775064
0002f0 62 37 13 3d 78 1d ce bd d8 48 b8 3d 4f 63 93 3d
       0.03594149 -0.100642145 0.08998269 0.07196676
000300 fa 10 69 3e 26 1e 8a 3e 9c a3 2b be eb d5 8b 3d
       0.22760382 0.26976126 -0.16761631 0.06827911
000310 35 2d 93 be f9 a5 90 3e b0 61 80 be e1 96 70 bc
       -0.28745428 0.28251627 -0.2507453 -0.01468441
000320 68 bd 33 3e 28 52 a1 3e 9a 88 eb bd 63 1d 30 3e
       0.17552722 0.31507993 -0.11500664 0.1719871
000330 c6 33 e0 bd f7 fb 0a be bb 07 bb 3d 69 86 d1 bd
       -0.10947375 -0.1357268 0.09132334 -0.10230715
000340 d6 36 4a 3e 10 33 89 bc 87 f7 03 bd 1a 0b 16 3e
       0.19747481 -0.016747981 -0.032218482 0.14652672
000350 cc 1b 02 3e 7c 08 82 3e ec 50 3f be 80 2c 82 3e
       0.12705916 0.25397098 -0.18683213 0.25424576
000360 d8 60 56 3a c4 19 1d be da ae 3f 3e 45 78 38 3e
       0.0008177883 -0.1534186 0.18719044 0.18014629
000370 36 7e 94 bd 0f 82 7a 3d 26 47 74 3e b9 34 0f 3d
       -0.07250635 0.06115919 0.23855266 0.03496239
000380 ad 47 90 bc dc d9 88 be f1 f1 43 be b9 4c 6d 3e
       -0.017612303 -0.26728714 -0.19135262 0.23173799
000390 8d 66 c2 3d 87 35 50 be 8d 64 79 3e 6c 9b 74 bd
       0.09492216 -0.20332919 0.24354763 -0.059718534
0003a0 0a 22 67 be 95 a8 75 bd 5b 71 38 3e 6b 39 ac 3b
       -0.22571579 -0.059975225 0.18011992 0.005255868
0003b0 53 ae 7f 3e 21 99 92 3e db d9 de bd 81 b1 5d 3e
       0.24968843 0.28632453 -0.108813964 0.21649744
0003c0 92 83 6f be 46 94 49 be a9 58 42 3d ac 88 6b be
       -0.23390034 -0.19685468 0.047447834 -0.23001355
0003d0 a6 d6 9f be 2f 5b 3f 3e a5 09 5b 3d c8 18 bb 3d
       -0.3121845 0.18687128 0.053475995 0.09135586
0003e0 39 ac 07 3e 41 4f 6b be 63 8c 53 3d 3b ec e1 bd
       0.13249291 -0.22979452 0.051647555 -0.110313855
0003f0 43 3d 25 be 52 75 54 bd 97 f7 5a be c0 2a 35 be
       -0.1613665 -0.051869698 -0.2138351 -0.17692089

lstm.bias_ih_l0 f4 [256]
000000 5c 6d f3 3e fa 14 72 3e 92 31 25 bd 3d 2b 25 3f
       0.47544372 0.23640814 -0.040330477 0.645191
000010 b5 41 5e 3e 65 ac 19 bd dc 15 9d bc 52 e0 b3 3c
       0.21704753 -0.037517924 -0.019175462 0.02195755
000020 57 74 55 bd 04 37 e4 3e 40 86 16 3f 7d b5 09 3d
       -0.052112903 0.44573224 0.587986 0.033620346
000030 56 de 89 3d 54 f9 54 3d 13 7f 11 3f 97 07 90 bb
       0.0673186 0.05199559 0.56834525 -0.004395436
000040 5f 89 07 3e 6a e6 7b bd 4b 1f 06 bd f0 a1 2e 3f
       0.13235997 -0.061499037 -0.032744687 0.68215847
000050 15 29 14 be c0 68 49 3f a0 43 fa 3e f6 76 1c bc
       -0.14468797 0.7867546 0.4887972 -0.009549847
000060 45 d9 f8 3d b7 cb 82 3e 96 99 1f 3e 12 71 59 3f
       0.12150816 0.25546047 0.15585932 0.84938157
000070 70 fb 6d bd 32 ad 1d 3e 12 31 96 3d e5 24 1a 3d
       -0.058101118 0.153981 0.07333578 0.03763284
000080 10 b4 a9 bd f2 77 40 3f 40 e1 7d 3e 5b bf 66 3f
       -0.08286297 0.7518302 0.24792957 0.90135735
000090 69 14 a5 3c 46 6e cd 3e 72 6f 24 bd e3 50 3b bd
       0.020151334 0.40123194 -0.040145345 -0.045731436
0000a0 c6 1c b8 bd 9c 5a 53 3d d3 2d 46 3d 3e e9 cf 3d
       -0.08989863 0.051600084 0.048383545 0.10151909
0000b0 a8 ac 76 3f 90 22 10 3a 1d b7 0e be f5 69 71 3e
       0.963572 0.0005498314 -0.1393704 0.23575576
0000c0 eb 71 79 3d e8 ca 33 3f 98 74 9e bd ff 13 8c 3e
       0.060899656 0.70231485 -0.07737082 0.27359006
0000d0 ca 93 07 3f a4 ae 04 bd 6e ac e7 bc 23 12 12 3c
       0.52959883 -0.032393113 -0.028280463 0.008915457
0000e0 c9 3a 92 3d 0b cf 30 3f d4 f9 0f 3f 51 f9 e0 3c
       0.07140119 0.6906592 0.5624058 0.027462633
0000f0 ee 6f 16 3e f7 83 2e 3e 4d 33 87 3d 93 ec e9 bd
       0.14691135 0.17042528 0.06601582 -0.11422076
000100 7d 22 1c 3d 5f 0a 9c 3d 8a cf e8 bd c7 e7 2b 3e
       0.038118828 0.07619166 -0.1136771 0.16787635
000110 2c 53 1a be da f9 eb 3d 3a 34 52 3d 42 60 d6 3c
       -0.1507079 0.11522265 0.05131934 0.026168946
000120 2a 3b fa 3c 02 91 0b 3d 1e 26 1e 3e f0 04 c1 bd
       0.03054579 0.034073837 0.15444228 -0.0942477
000130 29 6a c5 bd 96 b8 7e 3d 99 3d 80 3d 06 25 b1 bd
       -0.09639389 0.062187754 0.06261749 -0.0864964
000140 91 85 e7 bd 2d 3c 49 bd 56 ef f0 bd 38 ea 0d 3c
       -0.11304773 -0.049129654 -0.117644 0.008661799
000150 4a 93 2f be 10 4a 77 bd 1b 44 77 3d 39 1e 07 be
       -0.1714603 -0.060373366 0.060367685 -0.13195123
000160 d3 97 8f bc 66 2c 96 3d 85 aa 1c 3e 09 63 c3 3d
       -0.01752845 0.07332687 0.15299423 0.09540374
000170 b5 88 53 bc 35 cc 71 3d 2c d8 85 be db a0 8a b6
       -0.012911011 0.059032638 -0.2614149 -4.1314465e-06
000180 7a 5a ba 3d 4e e1 92 3e c3 44 21 3d 0a 3e f5 3d
       0.09099288 0.2868752 0.039372217 0.11974724
000190 b3 34 9d bd 5b 30 26 3e d5 ea df bb 7d 9d b6 bc
       -0.07676067 0.16229384 -0.006833414 -0.022291893
0001a0 3b c1 3a 3d 5d 7b 15 be 2b 07 38 be 7d a0 4d 3d
       0.045594435 -0.1459784 -0.17971484 0.05020188
0001b0 3c 4e 82 3e 9c a4 4c bd b6 3a 13 be 17 a8 ca bd
       0.25450313 -0.04996167 -0.14377865 -0.09895342
0001c0 5b 91 06 bd 73 01 15 3d 73 d1 ba bd ad fa 94 bd
       -0.032853466 0.036378335 -0.091219805 -0.07274375
0001d0 ef e8 15 3e 70 38 f7 bc 26 d0 90 bc c3 2e cb bd
       0.14639638 -0.030178279 -0.017677378 -0.099210285
0001e0 4d 92 94 bd 31 1b 72 3e 47 9d 19 bc 7f 24 1d be
       -0.07254467 0.23643185 -0.009375877 -0.15345953
0001f0 86 20 87 3c b8 f3 9b 3c b3 8b b2 bd af 17 3c 3d
       0.016495 0.019037113 -0.08718052 0.045921024
000200 41 35 78 3e 32 1e c7 3e 5f bb 60 be 98 e3 1d 3f
       0.24239065 0.38890225 -0.21946476 0.61675406
000210 8a 2a 49 be cc 34 1d 3f fb ae 7e be 43 10 23 3e
       -0.19645134 0.61408687 -0.24871437 0.15924172
000220 79 a5 c1 bd 9f 42 19 3f 68 f6 00 bf ab b3 81 3e
       -0.094553895 0.5986728 -0.50375986 0.25332388
000230 1c f0 ff bd 67 05 f3 bd de fd d5 3e 2a 4f 2b be
       -0.12496969 -0.11866265 0.41795248 -0.16729417
000240 47 9d a1 3d 17 aa 92 bd 5b f4 ef bd d5 70 23 3f
       0.078913264 -0.07161348 -0.11716529 0.63844043
000250 20 da 4b 3e cd 19 16 3f 9b 2d 2e bf d3 2b f8 3d
       0.19907427 0.5863312 -0.6803834 0.12117734
000260 b9 82 99 3d 06 c4 d4 be 8b 46 ff 3e 33 51 24 3f
       0.074956365 -0.41555804 0.49858508 0.641864
000270 d7 c7 91 3d 09 cd 16 bd b8 b4 bc 3d 29 8d c9 bd
       0.071181946 -0.03681663 0.09214157 -0.09841377
000280 6d 57 14 3e 04 a5 35 bf 6c e1 a8 be 66 06 23 3f
       0.14486475 -0.7095492 -0.32984483 0.6368164
000290 6c b4 28 3c 65 d9 60 bf 1d b0 87 3d 0b e8 94 3d
       0.010296922 -0.8783172 0.06625388 0.07270821
0002a0 7d 7a 78 bd 5e 59 b8 3d b0 1a 17 3e 49 f1 e7 3d
       -0.06066369 0.090014204 0.14756274 0.11325318
0002b0 bd c1 1c 3f 11 4c f1 3d 74 b5 23 bd f9 5e 3b 3f
       0.6123312 0.11782087 -0.03996797 0.7319179
0002c0 6e 09 42 be bf b6 bd be ea 47 e3 3d 1f d9 95 be
       -0.1894891 -0.37053487 0.11097701 -0.29267213
0002d0 88 e7 db be 1b 6c aa 3c 78 e1 2f be e0 77 da 3d
       -0.42950082 0.020803502 -0.17175853 0.106673956
0002e0 37 57 e4 3c e3 d6 05 bf ea 21 cc 3d 7d 3e 2d be
       0.027873619 -0.52281016 0.09967406 -0.16918369
0002f0 87 f6 98 bd e2 d5 b6 bc 38 e0 0f be 00 13 98 bd
       -0.07468896 -0.022318784 -0.14050376 -0.07425499
000300 48 8a 8f bd 4d ab 17 3d ab 5f 80 3d 66 0f a7 3d
       -0.07008797 0.0370286 0.06268247 0.08157234
000310 63 8c 91 3e 40 0d 7f 3d 91 ad 85 3e 43 74 d4 bd
       0.2842742 0.062268496 0.26108983 -0.10373738
000320 96 36 cd 3d fa 29 e6 3b 29 8c 28 3e b7 db 3c 3e
       0.10020177 0.007024047 0.16459717 0.1844319
000330 65 39 3e 3e 8f e0 97 3d 7f 82 c0 3d 0f b2 85 3b
       0.18576582 0.07415878 0.0939989 0.004080064
000340 99 de 58 3d e9 57 55 be c2 30 8b 3d fe 84 2c 3d
       0.05294666 -0.20834316 0.06796409 0.04211902
000350 7a 7a 62 3d 05 98 4f bd 24 9a 5e bd d8 05 11 bd
       0.055292584 -0.050682086 -0.05434622 -0.035405964
000360 b3 c8 18 3c 2c 39 b0 3d 15 a7 f4 bc 59 fe 3a 3b
       0.009325194 0.08604655 -0.029864827 0.002853295
000370 ef b5 cb bc 3c e8 29 3e 17 9b bb 3e a0 4c 1e 3e
       -0.024867026 0.16592497 0.36641762 0.15458918
000380 a6 b8 7f bd dc 70 23 3e d9 de e7 3d c9 2f 1a 3e
       -0.062431954 0.15961021 0.11321802 0.15057291
000390 c1 b3 a1 bd 7a 49 1b 3e 74 38 c3 3c 8b 40 cf 3d
       -0.078956135 0.15164748 0.02383063 0.101197325
0003a0 35 1c d5 bc a7 29 b2 3a d6 56 ca 3d 61 f5 a3 3d
       -0.026014427 0.0013592736 0.09879844 0.08005787
0003b0 b0 b8 75 3d 8e 06 2e bd 1c 2a e2 bd b5 d7 ef bc
       0.059990585 -0.04248672 -0.11043188 -0.029277662
0003c0 d6 b8 d6 bb 45 70 c0 3c 23 00 d1 3d f5 f3 7e bd
       -0.006552796 0.023491034 0.10205104 -0.062244374
0003d0 ae b4 31 3e 68 2d 2f 3c 7b e4 23 bc c2 ba 89 bd
       0.1735408 0.010691978 -0.010003204 -0.06725074
0003e0 82 15 b3 bd 66 33 ac bd 93 cb 0f 3e b4 5e 07 3d
       -0.08744337 -0.08408241 0.14042501 0.0330493
0003f0 97 fb 1c bd 10 21 65 3e 74 50 a5 bd 2e 53 58 bd
       -0.038325872 0.22375894 -0.08071986 -0.0528137

lstm.bias_hh_l0 f4 [256]
000000 32 1e df 3e 8a f4 27 3e f0 40 e6 3d 66 89 46 3f
       0.43577725 0.16401878 0.112428546 0.77553403
000010 17 24 92 3d 35 9f 46 3e 0a 3f 2b 3d b9 c7 fd 3d
       0.0713579 0.1939667 0.041808166 0.1239161
000020 27 ca c5 bd f4 d5 01 3f 04 60 2b 3f f1 b1 24 3e
       -0.09657698 0.5071709 0.66943383 0.16083504
000030 97 db 1b bd f9 91 84 3c d1 9b d9 3e 33 3f 13 bd
       -0.038051214 0.016182886 0.4250169 -0.035948943
000040 ec cc 3a 3d 7c a7 55 be 1f fb eb bb 87 57 09 3f
       0.045605585 -0.20864671 -0.007201567 0.5364918
000050 0b bd 8d 3c 76 ea 63 3f 13 d9 c5 3e 00 ce d1 3c
       0.017302057 0.89029634 0.38642177 0.025610924
000060 2e 23 5b bd ca 8d 70 3e 46 8c 03 3e 75 e8 38 3f
       -0.053500347 0.23491588 0.12846479 0.722297
000070 20 8c 31 3d d9 43 15 3e 21 a9 31 3e bf f8 17 ba
       0.043346524 0.14576663 0.17349674 -0.0005797259
000080 1b 73 f2 bc 0a 7a 26 3f 92 bc bf 3d 7c e6 5e 3f
       -0.029595902 0.65029967 0.09362139 0.8707044
000090 a6 32 94 bd ab 0e 00 3f cb a1 e6 bc 05 3d 47 3d
       -0.07236223 0.5002238 -0.02815332 0.048642177
0000a0 fc a1 9e 3d a3 0e a5 3d 41 d3 64 bd ab 48 d1 bc
       0.0774574 0.08059432 -0.05586553 -0.025547346
0000b0 b2 1c 6a 3f e7 9d 38 bd 91 57 4e bb 5e 9c 33 3e
       0.91450036 -0.045072462 -0.00314853 0.17540118
0000c0 cb a1 3d 3d c0 02 3f 3f 6a 91 03 bd 68 d4 36 3e
       0.046296876 0.7461357 -0.0321211 0.17854464
0000d0 53 00 fc 3e 87 97 83 3d 10 c5 17 3e b7 e2 88 bb
       0.49218997 0.06425386 0.14821267 -0.004177417
0000e0 49 e7 9d bd 15 f4 2d 3f f5 1a 01 3f b3 f8 2d 3e
       -0.0771013 0.67950565 0.5043176 0.16989402
0000f0 30 c8 da 3d 7a 72 55 3e 51 74 81 3e be 97 19 be
       0.10682714 0.2084445 0.25284055 -0.14999291
000100 75 cb 7c bd c0 ce b6 bc 6e 13 b6 bd 04 d6 99 3d
       -0.06171747 -0.022315383 -0.08890425 0.07511523
000110 38 17 d8 bd 72 71 1a bd bc 94 75 3d ad d4 08 be
       -0.105513036 -0.037705846 0.059956297 -0.1336238
000120 83 f4 03 3d dd e4 85 bc 83 a1 c8 bc 9a 7f d6 bd
       0.032215606 -0.016344482 -0.024491077 -0.10473557
000130 69 93 8a bc cd 36 ad bd 60 a1 d3 bd 91 d4 a8 ba
       -0.016915994 -0.08457718 -0.10333514 -0.0012880733
000140 ca cc 02 be ff 1e 98 bd 4e dc 6a be dc 6f 03 3d
       -0.12773433 -0.07427787 -0.22935602 0.0320891
000150 e9 da 48 be 3c 40 5a bd fd b3 b8 3c dd 80 08 be
       -0.19614758 -0.053283915 0.022546763 -0.13330407
000160 42 a4 46 be 75 ed b8 3d 79 79 0c 3e 3d b4 3e 3e
       -0.19398597 0.09029666 0.13718213 0.18623443
000170 53 b8 5e bd 91 76 69 bd b4 71 2c be 87 4b f1 bc
       -0.054375004 -0.05699784 -0.1684025 -0.02945496
000180 f9 e5 0f 3d 97 d9 c9 3d f8 68 fb 3d 6e 2b 09 3e
       0.03513143 0.09855955 0.122758806 0.13395473
000190 4f 08 cf 3c 91 f1 04 3d 64 cd 21 bd 3d cf 33 bd
       0.025272517 0.03245694 -0.039502516 -0.04389881
0001a0 b0 bf 2b be 16 f1 82 3d 8b cd 47 3d 6b 91 8f bd
       -0.16772342 0.0639364 0.048780005 -0.07010158
0001b0 e9 a7 99 3e 4e 96 96 bc 86 cb ef bd 33 6d 02 3e
       0.30010918 -0.018382218 -0.11708741 0.12736969
0001c0 16 68 87 bd 8f 27 c2 bd e3 c7 e6 bd 8e ec 07 be
       -0.0661165 -0.094802015 -0.11268594 -0.13273832
0001d0 6a 4b 38 3e 73 96 40 bc c0 c6 a6 3c 8f bc 1e be
       0.17997518 -0.01175462 0.020358443 -0.15501617
0001e0 4b d1 bb bd c0 7c 8e 3e 11 25 af bd af ea 65 3d
       -0.09170779 0.27829552 -0.08551992 0.056132015
0001f0 52 54 c6 3b 65 b2 27 bc 65 bb 85 3b 4e 6a c9 bd
       0.0060525322 -0.010235404 0.004081177 -0.09834729
000200 55 f1 d9 3e 88 af d3 3e ed 53 0e be a1 3f 10 3f
       0.42566934 0.41344857 -0.13899203 0.5634709
000210 55 dc 24 be 83 6d ea 3e 25 7d 76 be 4f 68 29 3e
       -0.16099675 0.45786676 -0.24071176 0.16543697
000220 b0 d6 de 3c d1 28 e9 3e bb 71 ab be 73 ce 3e 3e
       0.02720198 0.45538953 -0.33485207 0.18633442
000230 47 99 93 be 69 6d 85 be 92 2e 91 3e b5 99 55 bd
       -0.2882788 -0.26060036 0.28355843 -0.05214854
000240 f8 50 13 3e e6 37 f8 3b 6d 18 2b 3d e3 f5 29 3f
       0.14386356 0.007575023 0.04177134 0.6639082
000250 c6 e2 27 3e 5c 92 34 3f d1 92 34 bf df 80 f1 3d
       0.16395101 0.70535827 -0.70536524 0.11792158
000260 3b fe 95 3d 74 9d 08 bf 77 ff 02 3f f5 dd 0f 3f
       0.07323881 -0.53365254 0.5117106 0.56198055
000270 61 9b ad 3d 64 b7 f1 bd ef 0a b1 39 f0 de 04 be
       0.08476902 -0.11802557 0.00033768217 -0.12975669
000280 1a 64 83 3c 3e 48 21 bf 78 4e b2 be 16 6d 33 3f
       0.016038943 -0.6300086 -0.34825492 0.70088327
000290 b6 2e e8 bd 91 28 27 bf c4 43 dc 3d f5 bf e6 bd
       -0.113370344 -0.65296274 0.10755113 -0.11267082
0002a0 50 5e 3a be 14 04 50 bd 95 52 36 bd 5e 8d aa 3c
       -0.1820004 -0.05078514 -0.04451235 0.020819362
0002b0 47 1a 38 3f 6f 23 3a 3e 10 c7 00 3e ad fc 25 3f
       0.71915096 0.1817758 0.12575936 0.6483868
0002c0 13 0e 2c bd 8e 12 c1 be 60 db 0a 3e 8c d2 22 be
       -0.04200561 -0.3770947 0.13560247 -0.1590063
0002d0 62 ce c9 be 08 b8 9e bd 8c ce 6d be b3 93 0b 3e
       -0.3941527 -0.07749945 -0.23223323 0.13630562
0002e0 a5 25 33 3e c9 9e 24 bf 20 61 72 3e ce c2 ef 3c
       0.17494829 -0.64304787 0.23669863 0.029267695
0002f0 cc 6f 32 be 08 45 d1 bc ef 47 05 be 34 5b 0c be
       -0.1742546 -0.025545612 -0.13015722 -0.13706666
000300 4a dc df 3d 65 a9 28 3e fb 70 1b bd a7 3f c8 3b
       0.10930689 0.16470869 -0.037949543 0.0061111036
000310 a9 cc db 3e 9a 70 90 bd bd 91 8f 3e bf a8 f5 bd
       0.4292958 -0.07052727 0.28040877 -0.119950764
000320 36 94 0a 3d ac 6b 9f 3d 9e 9e b5 3c ad fc 48 3e
       0.03383275 0.07784209 0.022170361 0.19627638
000330 5d 8e 6c 3e 3a 9b 21 3d af 59 05 3c 3c 2a d4 bc
       0.23101182 0.039454676 0.008139058 -0.025899045
000340 af 16 dd 3d d0 06 0d bc 9a 1f 5b bd fa 5d 7b 3d
       0.10795342 -0.008607581 -0.053496934 0.06136892
000350 1d c9 99 3d 7f 6c 3e bd 29 8d dc 3d 26 88 27 3d
       0.075090624 -0.04649019 0.10769112 0.040901326
000360 da ac 9d 3d fc ce cf bc e3 f5 99 3c 79 c3 ec ba
       0.076989844 -0.025367253 0.018794006 -0.0018063626
000370 ae 01 f4 3d 36 fc 7e 3d bd f0 db 3e 2a 2b a9 3d
       0.11914383 0.062252246 0.42957106 0.08260186
000380 0d 1e c0 bb d8 cd 11 3e 09 ff 7e 3c f4 df e7 bc
       -0.0058629573 0.1423868 0.015563735 -0.028305031
000390 bf 54 8e 3d 6a 27 2a 3e ec 42 17 3e b5 37 ab 3d
       0.06949758 0.16616598 0.14771622 0.08360235
0003a0 76 6b bb bd fb 07 f6 3c 18 a9 80 3d 8f bc 11 3e
       -0.09151356 0.030033102 0.06282252 0.14232086
0003b0 4f 2f dc bc 9a 24 61 bd 15 af 35 be 51 2e 3e 3d
       -0.026878027 -0.054966547 -0.1774257 0.04643089
0003c0 b8 1b 16 3e bf e5 ca bd 82 03 ad 3b 7d 8f 63 3d
       0.14659011 -0.09907102 0.005279959 0.055556763
0003d0 d9 56 98 bc c7 41 6f bd 7b eb ec 3d 73 7e 1e be
       -0.0185961 -0.05841234 0.11568352 -0.15477924
0003e0 f2 74 8a 3d 3e 4b 47 bc 89 3d cd 3d 95 0d 31 3d
       0.06760587 -0.012163935 0.100215025 0.043225843
0003f0 99 81 1c 3e a4 c2 5f 3e 20 c9 a5 bd 6d aa 0e be
       0.15283813 0.21851593 -0.08095002 -0.139322

lstm.weight_ih_l1 f4 [256, 64]
000000 ff 04 d2 3d 06 bb f1 bc 65 f0 44 bc bb 7d 0e 3e
       0.10254859 -0.029508125 -0.012020205 0.1391515
000010 c5 cf b8 bd 5f d0 12 3e 32 1a 37 be 33 1c ce 3d
       -0.09024004 0.143373 -0.17881086 0.10063972
000020 99 5d 0d 3d 01 4a 21 3e 5b 3c d7 bd 61 71 82 bc
       0.03451309 0.15750886 -0.10509559 -0.015923204
000030 f8 93 f5 bc 76 e5 83 3d ec 90 48 3b 47 72 19 3c
       -0.029977784 0.064402506 0.0030603958 0.009365625
000040 f7 2b 8e 3e bb 67 08 3e 7e 22 7c 3c b5 aa c1 3d
       0.27767918 0.1332082 0.015389083 0.09456388
000050 f9 d1 fd 3d 74 e4 35 3e d2 b0 1d be f5 d4 0a bd
       0.12393565 0.17762929 -0.15399483 -0.033894498
000060 e9 e1 2d bd 17 d7 06 3d c5 af b4 3d 63 43 82 3d
       -0.042451773 0.03291997 0.08822588 0.06360509
000070 69 82 1e be 9b ce 90 3d 00 0c 12 3e d8 08 81 3e
       -0.15479435 0.07070657 0.1426239 0.2520206
000080 67 c8 08 bd 45 0a a0 bd 77 50 71 bd 25 58 27 3e
       -0.033394244 -0.07814459 -0.058914628 0.16342218
000090 90 b3 5b 3c 6d 60 0e be cc e4 8b 3d a1 01 74 bd
       0.01340951 -0.13903971 0.06830749 -0.059571866
0000a0 ec 93 28 3c 59 11 d0 3b de 73 08 bc e6 c7 b9 3d
       0.010289174 0.0063497243 -0.008328406 0.09071331
0000b0 8b 2c 61 bc f9 ce 26 3e 41 1b 02 be 7b e9 b7 3d
       -0.01374353 0.16289891 -0.12705709 0.0898008
0000c0 fb 5c 23 bd 00 76 8a bd f3 5d de 3b 2d 24 23 39
       -0.039883595 -0.06760788 0.006786102 0.00015558368
0000d0 de bc 47 be 11 2a 8d 3d 25 d0 95 3d 5b 58 24 3e
       -0.19505641 0.06892789 0.07315091 0.1604933
0000e0 cd c6 48 3d 1f 77 e0 bc c9 49 96 3c 79 02 02 be
       0.049017716 -0.027400551 0.01834573 -0.12696256
0000f0 61 ca f9 bc 73 69 07 3e b3 e6 3f be 64 1f 9c bd
       -0.03049201 0.1322382 -0.18740349 -0.07623175
000100 eb 7e 1f 3e 90 c6 c9 3e b7 c2 85 be bf a1 99 3e
       0.15575759 0.39409304 -0.26125118 0.30006215
000110 76 4c c1 be d4 48 c5 3e 20 d1 33 3d 54 ba b1 3e
       -0.37753648 0.38532126 0.04390061 0.3471247
000120 ab 28 c2 3d 5e d1 d2 3e ec ed a2 be 5c 84 ea 3d
       0.09480413 0.4117536 -0.31822145 0.11451027
000130 5f a0 2f be 7d 01 bc bd 88 20 a8 3e 52 e4 04 bf
       -0.1715102 -0.09179971 0.3283732 -0.5191089
000140 96 90 57 3e 67 b4 58 3e b8 a1 cf 3d e4 bf a1 3e
       0.21051249 0.21162568 0.10138267 0.31591713
000150 c3 24 87 3c bc 62 c6 3e dc 82 b0 be 76 b0 cc bc
       0.016497022 0.38747203 -0.34474838 -0.024986487
000160 08 41 e7 bd bc e5 fa be 43 92 e7 3e cf 34 c4 3e
       -0.112917006 -0.49003398 0.45228776 0.3832154
000170 bd 43 36 be d9 b5 5d bd 9b b3 19 3f 1e 5b 65 be
       -0.17799278 -0.0541285 0.6003968 -0.2239804
000180 f5 72 2a 3e 61 9b 7d be 4c df d5 be 64 52 f5 3e
       0.16645415 -0.24766304 -0.41771924 0.47914422
000190 21 76 36 3e 19 9e aa be 3a b6 88 3e 42 de 84 be
       0.178185 -0.33323744 0.26701528 -0.2595082
0001a0 3a 30 f9 bd 20 14 50 3c bb 47 6b 3e 04 8e 30 3e
       -0.121674016 0.012700111 0.22976582 0.17241675
0001b0 99 46 d5 3e c7 3b de 3e ed 39 03 3d 94 0c 16 3e
       0.41655424 0.43404981 0.032037664 0.14653236
0001c0 68 55 bb be f2 7e a7 be 39 ca 50 bd 30 09 f1 be
       -0.36588597 -0.3271404 -0.050974105 -0.47077322
0001d0 95 61 6c be 2e 9e b0 3e cf ac 1c be dd 0a 21 3e
       -0.230841 0.34495682 -0.15300296 0.157268
0001e0 eb 51 61 3c e2 2f 93 be 20 f2 ba 3e 01 48 83 be
       0.013752441 -0.2874747 0.36512852 -0.25640872
0001f0 66 25 03 be bb 0b 47 be 74 fc f4 be 70 fc 6d be
       -0.12807235 -0.19438069 -0.47848856 -0.23240829
000200 e8 be 46 3e a5 04 ff bc 29 a2 9e 3d aa 17 01 be
       0.19408762 -0.031130144 0.07745773 -0.12606683
000210 3e 02 47 3c 0e 46 2b 3d 3a 84 14 3d 0c 58 a9 bd
       0.012146531 0.041814856 0.036258914 -0.08268747
000220 25 d4 9f 3d ec 10 07 3d 89 d0 c7 bc e2 69 ee bd
       0.07804135 0.032975122 -0.02439143 -0.11641289
000230 a3 79 15 be 68 13 22 bc 68 64 37 3d 15 81 21 be
       -0.14597182 -0.009892322 0.04477349 -0.15771897
000240 f8 da 33 3e 84 a6 0c 3e 96 a7 eb bd 07 bd ec 3c
       0.17563999 0.13735396 -0.11506574 0.028898729
000250 ff ae c2 3c 91 76 d9 bc 73 83 fe 3d ba a5 26 3e
       0.023765085 -0.026545795 0.12427416 0.16274157
000260 c4 bf 09 be c3 7e be bc 0b 9e b9 3d d8 9e e2 bc
       -0.13452059 -0.023253804 0.090633474 -0.027663633
000270 a4 28 85 be d9 9b 71 3d eb 39 f4 bc 32 2e 56 3d
       -0.2600757 0.05898652 -0.029812774 0.05229015
000280 0d 86 45 bc 01 e8 22 be d2 cf 0d 3d 26 ad 81 bc
       -0.012055886 -0.15908815 0.03462202 -0.015829634
000290 99 f7 4e 3e f4 ba e9 3d 09 2a 1a 3e c1 3f b4 3d
       0.20211639 0.114126116 0.15055098 0.088012226
0002a0 6b 47 c7 bc 51 d6 3f be fc 58 ac bc 45 a2 ed 3d
       -0.024326047 -0.18734099 -0.021038525 0.11603216
0002b0 bb cc d7 3c ca 23 d3 3d ef fb 23 be 68 a4 01 bc
       0.02634274 0.103095606 -0.16014074 -0.007912733
0002c0 6a ac 0a be 52 f8 81 3d a9 7e 13 be a4 df 3d 3d
       -0.13542333 0.063461915 -0.14403786 0.04635586
0002d0 e4 21 77 3d 57 8e 2b 3e be ff 53 3d cf 9d 07 3e
       0.060335055 0.16753517 0.051757567 0.13243793
0002e0 42 c2 8b bd 35 8a 61 3d ba ff 14 bd c0 b8 c8 bd
       -0.06824161 0.055063445 -0.036376692 -0.09800863
0002f0 37 3d 9c 3a 71 c8 9e ba 98 fe fc bd 3d 31 5f 3c
       0.0011920099 -0.001211418 -0.123532474 0.013622579
000300 ed 11 1d 3e 6b e4 37 3e 04 b1 86 bd eb 55 35 3e
       0.1533887 0.17958228 -0.06576732 0.17708556
000310 9f 91 42 be da 9f 86 3e 3b 1c 4f be 01 c9 9f 3d
       -0.19000863 0.26293832 -0.20225613 0.0780201
000320 b0 15 0a 3e f4 b4 02 3e 36 4b 7d be 62 11 75 3d
       0.13484836 0.1276434 -0.24735722 0.05983103
000330 00 79 d0 ba b1 6c 0d bd 25 7a 26 3e 71 c1 81 be
       -0.0015905201 -0.034527484 0.16257532 -0.25342897
000340 ef d0 58 3d 6f 0a 15 3e 3e 25 7d 3d 61 66 0a 3e
       0.05293363 0.14554761 0.061803095 0.13515617
000350 df a9 73 3c 8e 0a 22 3e 43 fe a2 be 41 ec 02 3f
       0.014872043 0.15824339 -0.3183461 0.51141745
000360 a0 b4 e6 3d 8d 0d 92 be 60 8f b2 3c a0 bb 3b 3e
       0.1126492 -0.28525963 0.021796882 0.18333292
000370 75 8a 28 bd 26 b5 bb bd 56 46 6d be 92 b4 7b 3e
       -0.041147668 -0.09165411 -0.23171362 0.24580601
000380 b6 f0 c9 3c d1 d2 69 be d1 36 60 be ec fd 98 3e
       0.024650913 -0.22834326 -0.21895911 0.29881227
000390 f6 0a 37 3e 83 e9 b2 be 41 ad 9b 3e 13 f4 d7 bd
       0.17875275 -0.3494378 0.3040562 -0.105446
0003a0 38 a1 a3 be 68 92 aa be e3 0b 33 bd d9 e7 80 3d
       -0.31958938 -0.33314824 -0.043712508 0.062942214
0003b0 2a 82 8d 3e be 86 2a bb 94 b9 43 3d b2 45 86 3e
       0.2763837 -0.0026020254 0.047784403 0.26225048
0003c0 a1 14 8b be 21 e6 c9 bc 59 fb ed bc f3 2e 64 be
       -0.27164176 -0.024645867 -0.029050516 -0.22283535
0003d0 ca c4 96 be d6 74 92 3e 6e 48 82 be 5b 86 b9 3d
       -0.29447013 0.28604764 -0.25445884 0.090588294
0003e0 0e 57 2e 3e e8 72 84 bd 29 bc 13 3e f6 36 08 3c
       0.17025396 -0.06467229 0.14427246 0.008313885
0003f0 de 03 25 be 9c 36 57 3b 32 a4 36 be a9 4a 3c be
       -0.16114756 0.0032838946 -0.17836073 -0.18387856

lstm.weight_hh_l1 f4 [256, 64]
000000 f1 79 0e be 80 97 48 3d 5f 81 e3 3d 0f ee 18 be
       -0.13913704 0.048972607 0.1110866 -0.14934562
000010 14 98 cf bd 0e d0 3b 3d 4d 8f ca bd c9 48 88 bd
       -0.101364285 0.045852713 -0.09890614 -0.06654508
000020 02 d5 f0 3d b2 d9 00 3d 7f 17 fc bd 44 c1 76 3d
       0.11759378 0.03145761 -0.12309169 0.060242906
000030 02 e9 23 be 7e 35 ec 3d bd f5 b8 3c 24 01 f8 3d
       -0.16006854 0.1153364 0.022578115 0.121095926
000040 85 10 4c 3c 72 dd b4 3d de 9f de bc 74 0d 10 be
       0.01245511 0.088313 -0.02717584 -0.14067632
000050 27 e7 c2 3d 77 8a c4 3d 9d 34 ab bd 65 e3 86 3d
       0.09516745 0.095967226 -0.083596446 0.06586341
000060 b7 a4 58 bd c0 08 01 bd 7d db d5 bd b1 02 40 bd
       -0.05289146 -0.031502485 -0.10442255 -0.046877567
000070 7d 1a 11 be ac 70 c6 3b ca 84 da bc ed 8b 30 3c
       -0.1417026 0.006055912 -0.026674647 0.010775548
000080 85 1a 05 bd 52 e5 81 bd 6a 5a d8 bd 33 eb 85 bd
       -0.032495994 -0.063425675 -0.1056412 -0.06539001
000090 8c db 4b bd 73 79 d2 39 a6 28 04 3e 57 5d 86 bc
       -0.049769923 0.00040144808 0.12906131 -0.01640193
0000a0 67 f8 8b bd 80 da 6a bd 08 14 79 bd 35 3f 15 bd
       -0.06834488 -0.057337284 -0.06081012 -0.036437232
0000b0 58 86 26 be 25 46 e1 bc e5 11 6e bd df 4c 08 3d
       -0.16262186 -0.027499268 -0.058122534 0.033276435
0000c0 4f 73 52 3d 2e d6 4f 3d f4 5d 9f bd 8e ef 9e 3b
       0.051379498 0.050741367 -0.07781592 0.0048503345
0000d0 88 65 6a 3c da 04 8a 3d 46 26 cc bd fb aa 53 bd
       0.0143064335 0.067392066 -0.099682376 -0.05167673
0000e0 24 6d 24 bc 67 eb ff bc cf f8 2f bd 9e 5c 77 bd
       -0.010035787 -0.031240178 -0.04296189 -0.06039106
0000f0 fb dc af 3c 5e 8f 84 3d ee 3b b0 3c 40 f9 03 3d
       0.021467676 0.064726576 0.021512952 0.032220125
000100 11 c4 1f bd 2a ba 17 3e be 1b b6 bd ed 66 b7 3d
       -0.039005343 0.1481711 -0.0889201 0.089551784
000110 72 19 19 3e 7c fb a0 bb 23 10 6f 3e eb 9a 04 3e
       0.14951113 -0.004912792 0.23346 0.12949722
000120 74 80 c4 3c de d2 75 3d 2f 5d 82 bb 8a 9d b3 bc
       0.023987032 0.06001555 -0.0039783935 -0.021925706
000130 c7 9e b0 bc 51 91 88 bc 24 60 11 3e 48 26 b3 bc
       -0.021560086 -0.016670855 0.14196831 -0.02186884
000140 0a d8 e0 3b 02 9c f3 3d 1e 07 6d bd 5f d1 27 bc
       0.0068616914 0.118949905 -0.057868116 -0.010242789
000150 e0 bb 2e be 8e 29 12 3e 6c 04 9e 3c 11 27 cc bb
       -0.17063856 0.14273664 0.019289218 -0.006230243
000160 0d 18 0f be a8 47 a3 bc be ef 99 3d e8 1b 93 bd
       -0.13974018 -0.01993163 0.0751643 -0.07183057
000170 6d b8 e7 bd d1 5e 1d 3e fc c8 2e bd a3 25 2b be
       -0.11314473 0.15368201 -0.042672142 -0.16713576
000180 a6 22 d2 bc f7 89 fc 3d a7 2a 03 be fb 74 d3 3d
       -0.025651287 0.12331002 -0.1280924 0.10325047
000190 a7 4c 43 3b d5 41 92 bc af ed a6 3d f7 d8 15 bb
       0.0029800327 -0.017853657 0.08150803 -0.0022864917
0001a0 ba 98 fd bd 83 e7 94 bc 6d 28 c0 3c 55 9c 05 3e
       -0.12382646 -0.0181768 0.023456777 0.13047917
0001b0 1e 04 c0 3d 23 79 2d 3d bd b5 35 bd 16 78 3a bd
       0.09375785 0.042351853 -0.044362772 -0.04552468
0001c0 ae 4e 72 3d a2 b6 1a bd 05 3e d1 bd 19 a5 a6 bd
       0.059157066 -0.03777183 -0.102169074 -0.08136959
0001d0 3f 17 44 be ba 90 8d 3d d7 7b 0a 3e 14 06 0f be
       -0.19149493 0.0691237 0.13523804 -0.13967162
0001e0 1f 28 19 be 2e 66 32 bc 22 d2 33 be 15 6d 3f 3c
       -0.14956711 -0.010888619 -0.17560628 0.011683722
0001f0 74 c2 21 be d3 d6 3a be 99 26 8f 3d e7 7a d8 3d
       -0.15796834 -0.18246011 0.06989784 0.10570317
000200 22 ca 6a 3c 64 ab 69 bc 69 51 80 bd 2b 42 df bd
       0.014330419 -0.014262054 -0.06265528 -0.109012924
000210 90 ff 88 bc 3b ba a7 3b a4 11 17 bd 22 0e 07 3e
       -0.016723424 0.005118636 -0.036882058 0.13188985
000220 b6 3a 16 3e 1e 0f 60 bd 2e df a7 bd 2f 88 de bd
       0.14670834 -0.054701917 -0.08196865 -0.10865819
000230 dc bb 87 bd ce 78 b5 3d 35 cd 01 3e e0 0d 32 3d
       -0.06627628 0.08860932 0.12675937 0.043470263
000240 56 00 0c be 80 07 1b bd cd 6f d9 3d 96 54 22 be
       -0.13672003 -0.03784895 0.106170274 -0.1585258
000250 49 ed 5d be 96 24 88 bd b6 a5 29 3d a4 36 18 bd
       -0.21672548 -0.06647603 0.0414178 -0.037161484
000260 fc 56 bf bc 8d 9c 95 3c 85 4f 14 3e 72 b7 16 be
       -0.023356907 0.018263126 0.1448346 -0.14718416
000270 38 a6 42 be 35 2e 0f bc d5 0e 1b 3e c4 3e f4 bd
       -0.1900872 -0.008739044 0.15142377 -0.11926034
000280 b6 37 a9 bd 12 4a 70 bc 49 00 08 be 6a 51 67 bd
       -0.08262579 -0.014666097 -0.13281359 -0.056474127
000290 14 a8 95 3d 81 1d 49 3d 97 4b 09 bd 68 2b 00 3e
       0.07307449 0.049100403 -0.033519354 0.12516558
0002a0 a7 fc 6b 3d 43 ab 16 3e 3c 94 eb 3d f9 39 f3 bc
       0.057613995 0.14713769 0.11502883 -0.02969073
0002b0 02 42 25 be cb 90 30 3e 63 61 64 3c 95 d3 00 3e
       -0.16138461 0.17242734 0.013939234 0.12580712
0002c0 5e fc 1e 3d cd 76 d1 3d c9 ab de bd a0 17 2d be
       0.038814895 0.102277376 -0.10872609 -0.16903543
0002d0 fa 71 50 3d 0d 76 00 3e d9 b5 69 bd 22 ea b8 bc
       0.050889947 0.12545033 -0.05705819 -0.02257258
0002e0 e7 e7 9a bc 70 91 37 bd 15 c7 12 be 8a 8d 2d 3d
       -0.018909408 -0.044816434 -0.14333756 0.04237131
0002f0 a3 c1 b4 bd a2 d5 09 be 22 77 dc 3c 1a 3d 86 bb
       -0.08825996 -0.134604 0.026912276 -0.0040966393
000300 e8 e1 52 be f7 b4 48 3e 19 38 26 be 9e 30 5c bd
       -0.20593989 0.19600283 -0.16232337 -0.053757302
000310 f1 d3 80 3e 2d b0 0a be 0a 63 6b 3e f1 d2 e1 3d
       0.25161698 -0.13543768 0.22986999 0.11026562
000320 da 39 2f 3e fe 02 25 be 3f 3f 54 bd c2 d6 0d be
       0.17111912 -0.16114423 -0.05181813 -0.13851455
000330 be f3 a3 bd 1f 76 45 3e 24 c4 87 3e fd 23 29 3e
       -0.080054745 0.19283341 0.2651683 0.16517635
000340 7c ca c7 bd 82 9d 40 3d 7c bf 9b 3e 8e af 99 be
       -0.09755418 0.04702521 0.30419528 -0.3001675
000350 a4 a9 74 be 5e 2f 82 3e cf b7 e0 ba bc da 64 3d
       -0.23892838 0.25426763 -0.0017144623 0.055872664
000360 ce 60 e8 bd d8 54 8e 3d 5d fa d1 3d 4c 95 6e be
       -0.11346589 0.069497764 0.10252831 -0.2329914
000370 12 bf 76 be 0a 6a 15 3e d1 f4 18 3e fa 01 e3 bb
       -0.24096325 0.14591232 0.1493714 -0.006927726
000380 f3 6b c5 bd 52 05 65 3d 08 89 10 be 36 63 0e 3e
       -0.0963973 0.055913277 -0.14114773 0.13905033
000390 7d c2 27 3e 78 d9 44 3d d4 88 17 bd 30 c7 d1 bd
       0.16382785 0.048058957 -0.036995724 -0.1024307
0003a0 f7 2b a5 bd 37 36 78 3e b4 c8 bd 3d db 13 22 3e
       -0.08065026 0.24239431 0.09266797 0.15827887
0003b0 b4 58 78 3c 59 97 e4 3d 16 f7 ac bb bd ca c8 3d
       0.015157867 0.1116168 -0.0052784784 0.09804294
0003c0 c9 b8 2e bc 33 e7 1d be 1d e1 36 be df a5 1a bd
       -0.010664173 -0.15420227 -0.17859311 -0.037755843
0003d0 c9 36 9b be df 42 88 3e e6 52 92 3e 08 64 1a be
       -0.30315235 0.2661352 0.2857887 -0.15077221
0003e0 8b da 4e 3d f1 f8 a4 bd f9 d3 15 be 63 8c 34 3e
       0.050501388 -0.08055294 -0.14631642 0.17631678
0003f0 57 09 6a be 1c d4 4d be de 9d 58 3e 19 2a a9 3d
       -0.22855125 -0.20100445 0.21153972 0.082599826

lstm.bias_ih_l1 f4 [256]
000000 ff 34 c3 3d 2c 6d 5d 3e 74 58 06 3e 73 7b 92 3e
       0.095315926 0.21623677 0.1311968 0.2860981
000010 93 94 98 3d f3 7e 21 3e bb a3 df 3e d7 e6 80 3e
       0.07450213 0.15771084 0.43679604 0.25176117
000020 5f a0 2e bb 38 c9 91 3e a6 6b 90 bd 4a d6 97 3e
       -0.0026645882 0.2847383 -0.07051782 0.29655677
000030 b6 77 0e 3e f9 97 6a 3e 4a ef cc 3d 3b e2 a9 3e
       0.13912854 0.22909535 0.10006578 0.33180413
000040 91 79 93 bd 4e 4f 0e 3e 8d 3a 11 3e 20 90 ac 3e
       -0.07200921 0.1389744 0.14182492 0.3370371
000050 d1 a3 1b 3e 36 07 89 3e cb 06 93 3d 4a dc 14 3e
       0.1519921 0.26763314 0.0717903 0.14537159
000060 7b 98 af 3d fb 99 9b 3e 16 ad 72 3e 5a 18 ad 3d
       0.08574005 0.30390915 0.2369884 0.0845191
000070 23 2e e4 bc 6a 44 90 3d d9 6d 8f 3d 1e 91 45 3e
       -0.027854031 0.07044299 0.07003374 0.19293639
000080 c2 7d 0f 3e b5 01 dc 3d 57 9a dd 3e 5b 69 a0 3d
       0.14012817 0.10742513 0.43281814 0.07832595
000090 f2 24 84 3e f3 30 f5 3d b6 4a e3 3d a7 95 1a bd
       0.25809437 0.11972227 0.11098234 -0.037740376
0000a0 36 5b 54 3e 18 39 c6 3d b4 0b bd 3e 6a b1 3c 3d
       0.20737919 0.096788585 0.3692299 0.046067633
0000b0 7a 43 a9 ba 6f e4 bf 3d 4a 62 87 3e 88 a8 03 3d
       -0.0012913786 0.09369742 0.26442176 0.032143146
0000c0 c7 02 ab 3d 3e 8a 79 3e 32 8f 46 3e b7 8a 03 3e
       0.08350139 0.24369141 0.19390562 0.12845884
0000d0 5c 18 af 3e 17 94 7f 3e 1c a0 6b 3c a3 e2 3c bc
       0.34198272 0.24958836 0.014381435 -0.011528644
0000e0 82 1f ab 3d d4 34 32 3e 7c 44 56 3e 26 66 91 bc
       0.08355619 0.17402965 0.20924562 -0.017748903
0000f0 69 9a 14 3d 4d 3c b1 3e b0 b0 d0 3d 08 f1 4a 3d
       0.03628007 0.34616318 0.101899505 0.04954627
000100 06 66 40 bd 56 0f 9e 3b ab 70 0e bc be cf 12 be
       -0.046972297 0.0048236055 -0.008693854 -0.1433706
000110 af 2e 9f bd 13 d9 05 be 6f 05 70 bc d0 af e1 3d
       -0.07772576 -0.13071088 -0.014649733 0.11019862
000120 28 25 82 3d c4 d1 69 3d fe 69 6a bc 0e 73 21 be
       0.06354743 0.057084814 -0.014307497 -0.15766546
000130 27 b1 cb bd eb 22 03 3d 64 c6 c9 3d f3 a8 a5 bd
       -0.099458985 0.032015722 0.09852293 -0.08088865
000140 39 75 3f 3d 22 81 f9 bc 97 94 c7 3d 1e 41 e7 3d
       0.04674265 -0.030457083 0.09745138 0.11291717
000150 a9 f5 c3 bd e3 45 84 3c c5 e8 e2 bd 46 de b8 3d
       -0.0956834 0.016146606 -0.110795535 0.0902677
000160 6e 03 93 bd e4 44 54 3d 85 92 ca 3d 27 60 1d bd
       -0.071783885 0.05182351 0.09891228 -0.038421776
000170 d9 7a 70 3a f5 a5 8b 3d 6f 47 ba bd b5 71 43 be
       0.0009173579 0.06818763 -0.09095656 -0.19086345
000180 e3 88 a6 3c 21 31 b3 3d 77 23 e9 3d d1 83 f7 3d
       0.020328945 0.08749605 0.113837175 0.12085689
000190 64 30 df 3c a5 0f cb bc a5 97 b1 bc df 9f 22 3c
       0.027244754 -0.024787733 -0.021678755 0.009925812
0001a0 f7 3c c8 3c 61 c0 a3 bd df a1 21 3c e9 4c b1 39
       0.024443133 -0.07995678 0.009865253 0.00033817373
0001b0 d7 4f 1a be 90 14 06 be 22 0c 1a bd 3f 5c 04 3e
       -0.15069519 -0.13093781 -0.037609227 0.12925814
0001c0 02 32 b5 bd 1d 40 40 be b9 d9 2c be b3 05 b9 bd
       -0.08847429 -0.18774457 -0.1687993 -0.0903429
0001d0 87 4d c1 3b 9c d3 11 bd da 32 1f bd a7 1e 3e bd
       0.0058991346 -0.035602197 -0.038866855 -0.04641595
0001e0 52 2a 2f 3c 45 a2 1a be d1 e5 f3 bd c8 aa ed bd
       0.010691242 -0.15100963 -0.119090684 -0.116048396
0001f0 63 e3 be 3c 10 3c 9b bd ac 22 30 bd 95 cc 3b bd
       0.023301786 -0.075798154 -0.043001816 -0.0458494
000200 b3 80 8c bd 3e 72 a4 3d 2a de 1e be 64 8f 23 bc
       -0.06860485 0.080296025 -0.15514436 -0.009982917
000210 6c 59 86 3e 57 7c c7 3b 97 66 ac 3e bd 9f a7 3e
       0.26240098 0.0060878205 0.3367202 0.32739058
000220 38 04 8a 3a 48 37 b1 3b 1e fd d6 bd db ff af 3d
       0.0010529822 0.0054082014 -0.10497497 0.085937224
000230 0b 60 06 bd 7a c8 41 3d 6d 35 be 3d 15 9b 80 3e
       -0.032806437 0.04731033 0.09287534 0.25118318
000240 8c 18 2d be ee 65 af 3d 9d 17 df 3d 60 48 20 be
       -0.16903895 0.085643634 0.10893176 -0.15652609
000250 3c 06 95 bd 59 c9 31 3e 2b 8c 17 3e 27 6f 9c 3c
       -0.0727658 0.17361964 0.14799564 0.01909597
000260 49 b5 af bc c7 2e 33 3e 4b 75 5a 3d 41 52 a0 bc
       -0.021448748 0.17498313 0.053334516 -0.019570472
000270 c7 74 34 bd 86 37 05 3e 7e 57 c6 3d 48 81 bf bd
       -0.04405668 0.13009462 0.096846566 -0.0935083
000280 aa 7a b2 bc ab 99 02 3e 64 32 3b be 05 2c 56 3d
       -0.021787006 0.12753932 -0.18280941 0.052288074
000290 a7 53 40 3e db 47 9f 3d 13 a5 82 3d 13 ab 6d bc
       0.18781911 0.07777377 0.06379142 -0.014506119
0002a0 7a 07 3f be 3d d5 b2 bd 52 20 c7 3d 21 2c 39 b9
       -0.18655196 -0.08732078 0.097229615 -0.00017659414
0002b0 05 65 34 bd 28 0f ac 3d ff 12 04 3e 38 15 d4 3d
       -0.044041652 0.08401328 0.12897871 0.1035561
0002c0 63 4b fe 3c de 1f 9f bd 9f 61 86 3d 68 bc a1 bb
       0.031041807 -0.0776975 0.065615885 -0.00493579
0002d0 cf 03 09 be 23 21 b4 3d bb 5f b4 3d e0 ee 80 bd
       -0.13380359 0.08795383 0.08807322 -0.06295562
0002e0 47 56 d4 3d 8e 5a a7 3d a7 25 0d be 7a 1e 3c bd
       0.103680186 0.08171569 -0.13783894 -0.045927502
0002f0 ae ea b8 bd 7d 3d 26 be c3 5e 8d bd b8 df 35 3b
       -0.090291366 -0.16234393 -0.0690284 0.0027751755
000300 ab 4a 4d bb cd a6 ff 3d 9d 5c 20 3e ed 37 8f 3e
       -0.0031325023 0.124829866 0.15660329 0.27972355
000310 5b 8a 10 3d b7 8a 36 3d 6a 76 14 3e cf 0a cb 3d
       0.035288196 0.044565883 0.14498296 0.09914171
000320 f7 b9 ea 3d 4d ab 77 3e c2 cb 9f 3d 93 f1 08 3e
       0.11461251 0.2418644 0.078025356 0.13373403
000330 66 8b 4b 3e 77 66 b3 3b 5f cc fa bc 4b a6 06 3e
       0.19877395 0.0054748612 -0.03061503 0.13149373
000340 81 56 6f 3d 6d ff 1b bd 62 b6 89 bd 3b 08 91 bd
       0.058432106 -0.03808539 -0.0672424 -0.07081648
000350 52 cc 40 3e c7 84 f4 bc 6a 04 96 3d 05 e2 ad 3d
       0.18827942 -0.02984847 0.07325061 0.084903754
000360 ae 23 82 3e ab e1 1d 3d 17 d2 82 bd 4d 92 bb 3d
       0.25417846 0.038545292 -0.06387728 0.09158764
000370 46 d3 fd 3d dc 79 6e 3c f1 bd 66 3d a1 b5 7f 3e
       0.12393813 0.014555421 0.056333486 0.2497163
000380 ec 39 43 3d c1 ce bc bd 4d 8b ad 3e 04 7e bf 3c
       0.04766266 -0.09219123 0.3389534 0.023375519
000390 7a 41 06 3e 67 0e b1 3d 2a 75 11 bc ae 02 d5 bd
       0.13110915 0.08645325 -0.008878032 -0.10400902
0003a0 cf 88 eb bc a5 06 61 3d 58 8e c9 3d e8 d0 63 3d
       -0.028751759 0.054937977 0.09841603 0.05561915
0003b0 1f 13 16 3e a9 d0 5a 3d b3 fb 9a 3e 68 cd ce 3d
       0.14655732 0.05342165 0.30270156 0.10097772
0003c0 7e ab fd 3d ba 9b 9a 3e f7 3a 24 3e 6f 80 49 3d
       0.12386225 0.30196935 0.16038118 0.04919475
0003d0 dc fa 09 3e 64 03 a4 3d 36 6f 05 bd 23 f3 9d 3d
       0.13474602 0.08008459 -0.032576762 0.0771239
0003e0 9c ef 4e 3e ca 61 80 3e 43 d4 b4 bc 41 8f b5 3d
       0.20208591 0.25074607 -0.02207387 0.08865214
0003f0 1f 68 a7 3d 63 6c 9d bc 10 09 34 bd 95 b2 05 3d
       0.081741564 -0.019216722 -0.043953955 0.032641012
