newton_raphson/newton_raphson/holybro_ff.pt (torch, 539627 bytes, 10 tensors)

feedfwd_stack.0.weight f4 [128, 13]
-0.24683602 -0.06995569 0.3241122 -0.16337377 -0.04347496 0.30800742 0.98840845 1.006849
-0.23144601 0.09165129 0.099888474 0.20524931 -0.105054975 0.27835253 0.0806329 -0.21793656
0.2240873 0.07606157 -0.18058896 0.12246907 0.2583244 -0.36908036 -0.04141029 0.0050239414
0.10172797 -0.35162377 -0.22261326 0.11177023 0.01322394 -0.17697091 0.104596116 -0.09042515
0.25149375 0.7587223 0.33113253 0.055002917 0.082914315 0.3049846 0.1856665 0.17841373
-0.26425728 0.1116477 0.21533822 -0.068883516 0.04503107 -0.09911232 -0.33288816 -0.7735471
0.14450923 0.10229645 -0.29487035 -0.3354635 0.1943072 0.28237447 0.08075797 0.19056933
0.25156614 0.071348496 -0.35133696 -0.4722738 0.16187404 -0.027099505 -0.02729618 -0.04224228
0.006204467 -0.27018657 -0.29034436 0.06496166 -0.22328816 -0.22776704 0.07135096 -0.49639502
0.5883766 -0.30417758 -0.021451065 -0.10610615 0.103459366 -0.31586456 -0.2681245 0.21611509
-0.058899917 -0.23161091 0.15388155 -0.01700038 -0.275429 0.6305818 -0.25993216 -0.031056602
-0.13149083 0.22620128 -0.23234752 -0.124936536 -0.21611491 -0.12915732 -0.13089493 -0.1778974
-0.11572849 -0.49447906 -0.004483129 0.08555897 0.011845424 -0.11270142 0.024692686 0.0040674363
-0.114143506 -0.26678047 -0.17718273 -0.19165634 -0.051191088 0.031129573 -0.3865637 0.35463077
0.07308969 0.13475087 -0.32408693 0.19009148 0.13173233 -0.24806292 -0.19358115 -0.05336362
-0.054159533 -0.14881352 -0.033946287 -0.86027056 0.69249475 -0.056714904 0.21599944 -0.0982458
0.1016854 0.34646803 -0.03313186 -0.025252435 0.05475956 -0.040860895 -0.04059867 0.023567775
0.39376798 -0.6213887 -0.15782781 -0.009494217 0.07558829 -0.10860233 -0.054637242 0.01595588
0.027151208 0.059295423 0.029858558 0.004203908 0.11368118 1.235788 -0.4570726 0.13237514
0.017573938 0.274374 -0.14665805 0.15931386 -0.025458122 -0.02631763 0.35809776 -0.03537523
-0.023969036 0.28372833 -0.13572069 -0.18819267 -0.0015656704 -0.05578919 -0.033657275 -0.014032
0.03212475 0.004138202 0.003106371 -0.03198357 0.010099792 0.0039008902 -0.026679559 0.006282216
1.5363785 -1.3406396 -0.009623305 0.007440144 0.20553638 -0.12239928 -0.2487793 0.26878518
0.051956575 -0.2360138 0.22891226 -0.020526752 -0.054449342 0.20027705 -0.40030882 0.03056992
-0.10994168 0.03012587 0.013112035 0.09516389 -0.07507301 0.27456003 -0.0037404266 -0.064913236
0.3091695 -0.07260872 0.7540656 0.26355648 0.032016158 0.09025223 0.11397369 0.22739682
-0.006044435 -0.008575158 0.04572588 -0.004265827 -0.002032568 0.028053256 0.7050494 -1.3628047
-0.87749124 0.014559239 0.27193546 -0.36639854 -0.24720366 -0.061709803 0.18486765 0.09008916
-0.0038522216 0.24273781 0.1098264 0.4098024 0.92357296 -0.8004035 0.11197301 0.1639029
0.3338932 -0.42330703 -0.19797485 -0.25101355 0.1339396 -0.12580928 -0.15801992 0.00691919
-0.42800966 0.7767154 -0.87778753 0.11436272 0.099828795 0.018422559 -0.34436825 -0.17144063
0.16317563 -0.19153458 -0.13535187 0.113407806 -0.14326575 -0.32203317 -0.30267757 0.58136785
00000000: 95c2 7cbe ee44 8fbd 09f2 a53e 744b 27be
00000010: cd12 32bd 26b3 9d3e 5608 7d3f 6ee0 803f
00000020: 2f00 6dbe acb3 bb3d 5492 cc3d e02c 523e
00000030: 1027 d7bd 3984 8e3e dd22 a53d c32a 5fbe
00000040: 2477 653e 2bc6 9b3d 50ec 38be 10d1 fa3d
00000050: 1943 843e 1af8 bcbe d69d 29bd e09f a43b
00000060: c156 d03d 0808 b4be bbf4 63be cae7 e43d
00000070: 39a9 583c dd37 35be 7d36 d63d d230 b9bd
00000080: cac3 803e a03b 423f 348a a93e bd4a 613d
00000090: fbce a93d f126 9c3e 5c1f 3e3e 17b2 363e
000000a0: bb4c 87be 8da7 e43d 9f81 5c3e cd12 8dbd
000000b0: 8072 383d 66fb cabd 5170 aabe 2f07 46bf
000000c0: 3afa 133e cd80 d13d 3ff9 96be dfc1 abbe
000000d0: 77f8 463e 6393 903e 6f64 a53d 9b24 433e
000000e0: 47cd 803e 291f 923d 70e2 b3be dfcd f1be
000000f0: 4fc2 253e c8ff ddbc 3d9c dfbc 3e06 2dbd
00000100: d74e cb3b e555 8abe 04a8 94be 9e0a 853d
00000110: a7a5 64be c33b 69be 7420 923d 7d27 febe
00000120: d99f 163f 2abd 9bbe 25ba afbc 2e4e d9bd
00000130: 81e2 d33d 00b9 a1be 9d47 89be 464d 5d3e
00000140: 0a41 71bd 692b 6dbe 2093 1d3e 6244 8bbc
00000150: 0805 8dbe cf6d 213f d415 85be 6a6a febc
00000160: 88a5 06be 4fa1 673e 82ec 6dbe bade ffbd
00000170: 3a4d 5dbe d141 04be 5209 06be bc2a 36be
00000180: 0f03 edbd 5c2c fdbe 36e7 92bb 8b39 af3d
00000190: 4f13 423c 01d0 e6bd 5148 ca3c 2148 853b
000001a0: 12c4 e9bd 7397 88be 646f 35be 8f41 44be
000001b0: bfad 51bd 7203 ff3c adeb c5be 2a92 b53e
000001c0: 0cb0 953d 22fc 093e b9ee a5be 57a7 423e
000001d0: d7e4 063e 3504 7ebe 233a 46be d093 5abd
000001e0: 63d6 5dbd 9262 18be 430b 0bbd b13a 5cbf
000001f0: 5647 313f e34d 68bd f52e 5d3e 1835 c9bd
00000200: 6f40 d03d 4264 b13e 46b5 07bd 32de cebc
00000210: 8f4b 603d c15d 27bd ca4a 26bd 3511 c13c
00000220: f59b c93e 5413 1fbf 9d9d 21be a28d 1bbc
00000230: 09ce 9a3d e66a debd 4dcb 5fbd e8b5 823c
00000240: 366c de3c c2df 723d ef99 f43c f0c0 893b
00000250: aed1 e83d 4d2e 9e3f 6b05 eabe 598d 073e
00000260: 38f7 8f3c c07a 8c3e 872d 16be 2c23 233e
00000270: 8d8d d0bc 1298 d7bc 9758 b73e 9ee5 10bd
00000280: b65a c4bc d744 913e 5dfa 0abe 94b5 40be
00000290: 2e37 cdba 3583 64bd 36dc 09bd 79e6 65bc
000002a0: 3e95 033d c199 873b 4294 4b3b 3401 03bd
000002b0: 9979 253c 14a6 7f3b 178f dabc 0cdb cd3b
000002c0: 0da8 c43f 149a abbf 11ab 1dbc 74cc f33b
000002d0: 2178 523e 79ac fabd 00c0 7ebe 369e 893e
000002e0: 6bd0 543d 9aad 71be fa67 6a3e b827 a8bc
000002f0: 4606 5fbd 6d15 4d3e 47f5 ccbe c56d fa3c
00000300: 1b29 e1bd 87ca f63c dcd3 563c 49e5 c23d
00000310: e1bf 99bd 2293 8c3e f221 75bb 3bf1 84bd
00000320: 774b 9e3e e1b3 94bd 710a 413f e0f0 863e
00000330: 6023 033d 29d6 b83d 0a6b e93d b6da 683e
00000340: 6510 c6bb d27e 0cbc 0f4b 3b3d 5ac8 8bbb
00000350: d534 05bb f1cf e53c 1e7e 343f 6270 aebf
00000360: 44a3 60bf e089 6e3c 203b 8b3e 9798 bbbe
00000370: f522 7dbe 6bc3 7cbd f24d 3d3e aa80 b83d
00000380: 8e75 7cbb 4390 783e aaec e03d 9fd1 d13e
00000390: 476f 6c3f 3ee7 4cbf 1b52 e53d 29d6 273e
000003a0: 0df4 aa3e b3bb d8be ebb9 4abe d984 80be
000003b0: 7627 093e 26d4 00be f9cf 21be 5fba e23b
000003c0: 1524 dbbe d2d6 463f afb6 60bf 0037 ea3d
000003d0: 0a73 cc3d e8ea 963c 0951 b0be 228e 2fbe
000003e0: 8317 273e a421 44be ae99 0abe 5a42 e83d
000003f0: 42b4 12be 88e1 a4be 8ef8 9abe 86d4 143f

feedfwd_stack.0.bias f4 [128]
-0.2198139 -0.19079247 -0.10017511 0.251304 0.37798756 0.08043887 0.1918944 -0.25935748
-0.114637055 -0.040272973 0.52126056 0.3280736 0.47910997 0.2657173 0.011844989 0.21415706
0.052277733 -0.21741956 -0.0076640174 -0.13071252 0.22340395 -0.2778024 0.027251635 0.27283347
0.09637622 -0.064480454 -0.23215349 -0.30825287 0.04962813 -0.04563126 -0.061665177 -0.32667902
0.28753877 -0.05436026 0.081067845 0.054891597 0.40410665 -0.034506172 -0.3667032 -0.3215221
-0.08747743 -0.30314177 0.21873705 0.3405679 0.024468774 0.082510315 0.34771186 0.078167364
-0.28256115 0.108644314 -0.31464082 0.15299533 -0.16317682 0.20954534 0.32384634 -0.03373252
0.2480124 0.15823111 0.070013046 0.14389694 0.05101513 0.34554464 -0.03513597 0.20731229
0.012330111 -0.08023901 -0.1813487 0.21894777 0.1438227 -0.23274313 0.13154301 0.18140917
-0.034595925 -0.10389455 0.114862904 0.005581209 0.11877726 0.08812011 -0.028885005 0.047473393
0.0070295017 -0.14611311 -0.1789724 0.016043928 -0.26746625 0.229384 0.460185 0.058952183
0.31757912 -0.08463153 -0.09008748 0.3375864 -0.08363469 0.09555853 -0.03847299 0.25763577
0.061552983 -0.23807207 -0.3056377 0.31896892 0.14045626 -0.29213014 -0.23773172 -0.27898833
-0.081307985 -0.07731237 0.5599674 0.16923395 0.17233014 -0.012058955 -0.13892236 0.0042346837
-0.17130198 0.16556093 0.113124296 0.036159273 -0.01753258 0.27394783 0.25454345 -0.15005752
0.18087517 -0.09528307 -0.0010523513 -0.2108297 -0.05079996 -0.22960906 -0.05929145 0.3843293
00000000: e516 61be 1a5f 43be 9c28 cdbd ebaa 803e
00000010: 9687 c13e 22bd a43d f77f 443e 81ca 84be
00000020: d5c6 eabd 46f5 24bd 5571 053f 43f9 a73e
00000030: e74d f53e 190c 883e 7c11 423c fd4b 5b3e
00000040: 2d21 563d 3ca3 5ebe 7022 fbbb 81d9 05be
00000050: 01c4 643e 1e3c 8ebe d23e df3c d4b0 8b3e
00000060: e560 c53d 540e 84bd a5b9 6dbe 52d3 9dbe
00000070: de46 4b3d d8e7 3abd a094 7cbd 7942 a7be
00000080: 4838 933e dda8 5ebd e606 a63d 03d6 603d
00000090: 11e7 ce3e 5856 0dbd 86c0 bbbe 8b9e a4be
000000a0: 5e27 b3bd 6635 9bbe 9bfc 5f3e ea5e ae3e
000000b0: bd72 c83c 2bfb a83d 4a07 b23e 3616 a03d
000000c0: dbab 90be e980 de3d 9a18 a1be cfaa 1c3e
000000d0: d317 27be 0e93 563e 30cf a53e 1c2b 0abd
000000e0: f6f6 7d3e 5607 223e 0063 8f3d b859 133e
000000f0: 3ef5 503d 3aeb b03e bcea 0fbd ac49 543e
00000100: 3c04 4a3c 5a54 a4bd 79b3 39be d833 603e
00000110: 4246 133e 3754 6ebe 36b3 063e 53c3 393e
00000120: 75b4 0dbd aac6 d4bd 3e3d eb3d 93e2 b63b
00000130: 7e41 f33d 5178 b43d 3fa0 ecbc 7673 423d
00000140: bc57 e63b ad9e 15be 8a44 37be 8e6e 833c
00000150: 56f1 88be a4e3 6a3e 5e9d eb3e d877 713d
00000160: bb99 a23e 4c53 adbd c97f b8bd 20d8 ac3e
00000170: aa48 abbd 31b4 c33d db95 1dbd d6e8 833e
00000180: fb1e 7c3d 2ac9 73be 8b7c 9cbe e54f a33e
00000190: c4d3 0f3e 1592 95be f26f 73be 8fd7 8ebe
000001a0: cd84 a6bd f355 9ebd 065a 0f3f aa4b 2d3e
000001b0: 5077 303e ec92 45bc aa41 0ebe 1ac3 8a3b
000001c0: c969 2fbe ce88 293e b6ad e73d bf1b 143d
000001d0: 7ca0 8fbc e442 8c3e 8553 823e aea8 19be
000001e0: 5737 393e c523 c3bd 0def 89ba bee3 57be
000001f0: 9e13 50bd a31e 6bbe 97db 72bd cfc6 c43e

feedfwd_stack.2.weight f4 [256, 128]
0.008765917 0.011587579 0.097129405 -0.045559835 0.038837407 0.13207947 0.0010479004 0.10821534
0.08390393 0.07437379 0.09455679 0.04009915 0.057037603 -0.007236312 0.060919244 0.0721401
0.06194443 0.074022636 0.03824324 -0.046042293 -0.027522076 -0.0736737 -0.006607954 0.13294408
0.0389456 0.021131232 -0.08483652 0.0913541 0.07362158 0.08091262 -0.054291353 -0.062251322
0.027353128 -0.023118455 -0.052471638 0.038879484 -0.087858856 0.14111798 0.006596326 -0.06103469
0.05575938 -0.0682303 0.1495224 -0.06145055 0.06390619 0.018352754 0.121382594 -0.06639172
0.0745036 0.050632194 -0.036083333 0.041832693 0.088906996 -0.09618212 -0.11610401 -0.018633338
0.075846866 0.034922563 0.13515773 0.023056362 -0.009483972 -0.0021719418 0.079789266 -0.04703363
-0.00028446835 -0.020576378 0.03214542 -0.006694001 0.024428653 -0.052145608 0.11663812 0.046292137
0.067052506 -0.045411885 -0.09174981 0.034470674 0.06723428 -0.0076662977 0.05791954 -0.045035202
0.034296 -0.04394382 -0.03136789 0.059588257 -0.03184372 0.091116145 0.06617083 -0.019112406
0.04886987 -0.05398355 -0.0817776 -0.0099674165 -0.07614101 -0.040482044 -0.067334384 -0.0030893534
0.08156637 -0.021634705 -0.011588739 -0.038882334 -0.03772722 0.027362576 0.043593895 -0.08140735
0.104534194 -0.044749424 -0.033329897 -0.09358496 0.152918 -0.05371869 0.0073553193 0.062136717
0.091952436 0.090207264 0.07116355 0.07117639 0.018889125 0.01162015 -0.03049458 0.04400593
0.0069573456 -0.028631452 0.033112623 0.02784547 0.04467249 -0.033480745 0.10803665 0.050613075
0.08431252 0.041642647 -0.009449027 -0.07309137 0.09492141 0.1780507 -0.13277659 0.20094296
0.04324175 -0.021919066 -0.096241765 0.021599667 -0.084054455 0.08601053 -0.03508981 -0.063883804
-0.18230115 0.05394847 0.010580049 0.059941005 -0.06590552 -0.018398909 0.043222845 -0.06461481
-0.018203996 -0.048450164 -0.00063789636 -0.14691289 0.07855383 0.026420575 0.09005805 -0.06640619
-0.062281977 0.08323936 0.03477075 0.008312017 -0.015249734 0.10561921 0.038201533 -0.059710376
-0.15392767 0.05172341 0.010991027 -0.08649857 0.06693045 -0.008381955 -0.124758564 0.004254901
-0.08099039 -0.029331464 -0.038808923 -0.020864379 0.05133545 -0.027094586 -0.041778173 -0.17312661
-0.068619184 0.10881238 0.10808154 0.062978454 0.062369145 -0.04866111 -0.115821615 0.055621214
0.05225358 -0.098711744 0.03953878 0.0005790461 -0.091396056 -0.03084572 0.058820218 -0.029916458
0.008720205 0.023975948 -0.004551409 0.011083412 -0.11126689 0.09634246 0.07090917 -0.018613013
0.14778447 0.094679065 -0.07184901 0.0118394345 0.07800472 -0.07741835 -0.059495382 -0.034940373
0.015094101 -0.030488132 0.08269205 -0.07181788 -0.08623096 0.04020051 -0.11690237 0.06218263
-0.032880865 -0.07982317 -0.11097729 -0.05577312 0.0699869 0.07628837 0.040065676 0.1532134
0.038233243 -0.01091378 -0.13877004 -0.022352874 -0.0888807 0.025110342 -0.042714283 -0.076875836
0.0047434084 0.004411963 0.013945838 -0.068963364 -0.041921176 0.08940155 -0.02841609 0.04510656
0.06792036 0.014188557 -0.08134853 0.042394076 -0.047380622 0.053098798 -0.13713224 0.013658635
00000000: ec9e 0f3c d4d9 3d3c c8eb c63d f39c 3abd
00000010: f913 1f3d d73f 073e b459 893a 01a0 dd3d
00000020: d3d5 ab3d 4951 983d fea6 c13d 023f 243d
00000030: 43a0 693d 961e edbb 7586 793d 30be 933d
00000040: 71b9 7d3d 2e99 973d f2a4 1c3d d896 3cbd
00000050: fa75 e1bc 3de2 96bd 8987 d8bb 7e22 083e
00000060: 6c85 1f3d 681b ad3c c5be adbd dc17 bb3d
00000070: e9c6 963d 84b5 a53d 9c60 5ebd 3efb 7ebd
00000080: ab13 e03c ea62 bdbc 80ec 56bd 1840 1f3d
00000090: 58ef b3bd 3b81 103e fe25 d83b 83ff 79bd
000000a0: f363 643d 54bc 8bbd 661c 193e 92b3 7bbd
000000b0: 40e1 823d 8458 963c 7097 f83d 62f8 87bd
000000c0: 5895 983d b463 4f3d 1ecc 13bd c258 2b3d
000000d0: df14 b63d 22fb c4bd f0c7 edbd f1a4 98bc
000000e0: 9a55 9b3d f60a 0f3d ca66 0a3e b2e0 bc3c
000000f0: a962 1bbc 2357 0ebb 8e68 a33d 56a6 40bd
00000100: b224 95b9 cb8f a8bc eaaa 033d 5a59 dbbb
00000110: 991e c83c a296 55bd f7df ee3d d39c 3d3d
00000120: d352 893d d001 3abd 53e7 bbbd 1f31 0d3d
00000130: 20b2 893d 9135 fbbb 0a3d 6d3d d576 38bd
00000140: f679 0c3d 6ffe 33bd 9e7b 00bd d112 743d
00000150: 8f6e 02bd 1a9b ba3d 9284 873d 9f91 9cbc
00000160: c62b 483d db1d 5dbd 047b a7bd 604e 23bc
00000170: d1ef 9bbd 80d0 25bd 9ce6 89bd c076 4abb
00000180: 450c a73d 443b b1bc b2de 3dbc 1543 1fbd
00000190: dc87 1abd 7b27 e03c 838f 323d e6b8 a6bd
000001a0: 0616 d63d 2c4b 37bd ee84 08bd 79a9 bfbd
000001b0: 8996 1c3e 2108 5cbd e404 f13b 1283 7e3d
000001c0: 8f51 bc3d 96be b83d 32be 913d edc4 913d
000001d0: 5ebd 9a3c 7162 3e3c c5cf f9bc 903f 343d
000001e0: 72fa e33b 828c eabc 1aa1 073d 2f1c e43c
000001f0: 80fa 363d 1b23 09bd 5242 dd3d a84f 4f3d
00000200: 0bac ac3d 7b91 2a3d 17d0 1abc eeb0 95bd
00000210: 2866 c23d ec52 363e 96f6 07be fec3 4d3e
00000220: 431e 313d 9d8f b3bc 671a c5bd c9f1 b03c
00000230: be24 acbd 4a26 b03d 55ba 0fbd 83d5 82bd
00000240: 27ad 3abe 12f9 5c3d f157 2d3c b384 753d
00000250: 79f9 86bd 4fb9 96bc 700a 313d c554 84bd
00000260: 8c20 95bc ae73 46bd 8038 27ba 5570 16be
00000270: d5e0 a03d f66f d83c 5b70 b83d f8ff 87bd
00000280: 631b 7fbd 6679 aa3d c66b 0e3d 202f 083c
00000290: 05da 79bc e24e d83d 3679 1c3d de92 74bd
000002a0: 379f 1dbe eddb 533d b513 343c 2a26 b1bd
000002b0: d512 893d 7854 09bc 6b81 ffbd b26c 8b3b
000002c0: 4ade a5bd 8a48 f0bc 1bf6 1ebd c6eb aabc
000002d0: 1f45 523d 77f5 ddbc 971f 2bbd 1a48 31be
000002e0: 3788 8cbd 06d9 de3d db59 dd3d d9fa 803d
000002f0: ca76 7f3d df50 47bd e233 edbd 12d3 633d
00000300: da07 563d 6229 cabd 6af3 213d 20cb 173a
00000310: db2d bbbd 2ab0 fcbc 78ed 703d 5c13 f5bc
00000320: 31df 0e3c 3569 c43c fc23 95bb 3397 353c
00000330: e5df e3bd 324f c53d d438 913d 517a 98bc
00000340: d054 173e 19e7 c13d 9325 93bd 30fa 413c
00000350: f0c0 9f3d 838d 9ebd 6eb1 73bd a31d 0fbd
00000360: 404d 773c 3fc2 f9bc 735a a93d 4115 93bd
00000370: dc99 b0bd 4aa9 243d 826a efbd 37b3 7e3d
00000380: 16ae 06bd 557a a3bd 1048 e3bd 5b72 64bd
00000390: 4b55 8f3d 143d 9c3d e81b 243d f9e3 1c3e
000003a0: 769a 1c3d b6cf 32bc bc19 0ebe 601d b7bc
000003b0: 1607 b6bd 34b4 cd3c 2cf5 2ebd 1471 9dbd
000003c0: 986e 9b3b 3a92 903b 167d 643c aa3c 8dbd
000003d0: 8ab5 2bbd 2918 b73d dcc8 e8bc a8c1 383d
000003e0: d419 8b3d 1f77 683c 0f9a a6bd 69a5 2d3d
000003f0: 2f12 42bd 207e 593d 656c 0cbe 78c8 5f3c

feedfwd_stack.2.bias f4 [256]
-0.012579872 -0.0052433675 0.080515526 -0.09692051 0.13278544 -0.0118587995 0.15581843 0.10967619
-0.020398688 -0.11077723 -0.23700136 0.05430828 -0.10568477 -0.0651596 0.19138843 -0.015933499
-0.013891985 -0.011037955 0.081868745 -0.013802706 -0.122429214 -0.05147401 0.11310032 -0.12277178
0.10941152 -0.12034071 -0.016391225 0.013469024 -0.016107798 -0.052192368 -0.044351608 -0.11469378
-0.025354415 -0.061556067 -0.053162064 -0.09983278 0.03863095 0.13521846 0.13382185 0.16448405
-0.0053773057 0.14894149 -0.096259624 0.05165359 0.042034756 -0.03186024 -0.07628078 0.13081661
0.125594 0.12235705 -0.0872764 -0.07973546 0.01854991 -0.012612035 -0.08356687 0.12573162
0.085380465 -0.11728638 0.021803245 0.028737953 0.29531455 -0.12382372 0.005207663 0.028256193
-0.029168189 -0.115746364 -0.09097554 -0.13367534 -0.087050535 0.10358364 0.19374752 0.06294546
-0.030200504 -0.10246923 -0.064189136 0.1539226 -0.10933659 -0.05861503 -0.09618676 -0.004362033
0.1641651 -0.012432583 0.1364806 0.07401239 -0.0716805 0.023572795 0.053408686 -0.18353899
0.077861354 0.058582272 -0.05932765 0.12772648 0.060486436 0.05747511 -0.019811908 0.11425061
0.1595312 -0.08980193 -0.15138587 -0.046644762 0.083477 0.15772852 0.037719607 0.18370222
0.0027578988 0.051095426 -0.04034863 -0.10077195 -0.025828557 -0.15440093 -0.006818486 0.07677312
0.06287305 0.016529405 0.018185245 0.17474183 0.0943525 -0.07689439 0.03441652 -0.13989405
-0.13730393 0.004521257 0.04384683 -0.08218215 0.072496794 -0.063934475 -0.0052666236 -0.06719807
-0.027048096 0.16684584 -0.11533473 0.021114223 0.060772017 0.042094935 0.095502354 -0.050328124
-0.073976055 0.0013978977 -0.08861407 -0.059232928 0.14140174 0.10838195 0.0031996367 -0.09421858
-0.087954454 -0.063427106 0.057701588 0.024452616 -0.07669597 -0.144037 -0.08475271 0.00103333
-0.07696091 0.06528396 -0.039168205 -0.08630031 0.011293918 0.15382822 -0.16164495 -0.13406958
-0.11608728 0.048632614 0.0025015392 -0.048065264 -0.045806844 -0.16713244 0.022808786 -0.04357039
-0.03190394 -0.19195233 -0.08604587 -0.0728506 -0.013321469 -0.025860956 0.13652162 -0.0014985349
0.03313101 -0.06397986 -0.02708429 0.05630096 0.18944204 0.055002216 0.015476165 -0.1348778
-0.011559273 0.17375384 0.004534694 0.040806066 0.11978251 -0.10322658 0.06489598 -0.07391331
-0.052528188 0.034107395 -0.082395434 -0.03484915 -0.07538987 0.073888354 -0.05681809 0.03371185
0.014553417 -0.0038216691 -0.04706998 0.14423524 -0.10281127 -0.0056998115 -0.027594335 -0.08476995
-0.05230767 -0.022282317 -0.10327798 -0.064347565 -0.018332336 0.07341157 -0.08002169 0.16073605
-0.11062873 0.044573367 0.049841497 0.099863134 -0.054861486 0.024653653 0.10919375 -0.027680261
0.1661133 -0.073920235 -0.01512934 -0.15583827 -0.016119275 -0.04998362 0.17119355 -0.17087227
-0.0644873 -0.02517436 0.0056281346 -0.087869905 -0.18282363 -0.044680398 0.045419052 -0.15874952
-0.03968191 -0.09092431 0.0940918 -0.0915446 -0.039541665 -0.05062745 -0.06063076 -0.08859813
0.03869514 0.010815207 -0.0085470425 -0.15674628 -0.15338828 0.0046185697 -0.003308453 0.015355464
00000000: cf1b 4ebc 8ed0 abbb 53e5 a43d 437e c6bd
00000010: e8f8 073e 694b 42bc de8e 1f3e e99d e03d
00000020: 261b a7bc 2cdf e2bd 7cb0 72be 5c72 5e3d
00000030: 4271 d8bd 6572 85bd 54fb 433e f886 82bc
00000040: 359b 63bc 8ad8 34bc cdaa a73d bf24 62bc
00000050: 2bbc fabd 69d6 52bd 24a1 e73d c56f fbbd
00000060: 2613 e03d 3175 f6bd e446 86bc 2ead 5c3c
00000070: 80f4 83bc aac7 55bd 08aa 35bd 93e4 eabd
00000080: 10b4 cfbc 3722 7cbd 77c0 59bd 2175 ccbd
00000090: 7d3b 1e3d b576 0a3e 9808 093e 826e 283e
000000a0: 1c34 b0bb 1e84 183e c423 c5bd b792 533d
000000b0: a32c 2c3d e27f 02bd 1939 9cbd caf4 053e
000000c0: b79b 003e 5596 fa3d f8bd b2bd 584c a3bd
000000d0: fbf5 973c b5a2 4ebc 1b25 abbd cabf 003e
000000e0: f4db ae3d d733 f0bd b89c b23c db6b eb3c
000000f0: 7833 973e 4a97 fdbd 0ba5 aa3b 8879 e73c
00000100: 20f2 eebc 6e0c edbd 6251 babd 30e2 08be
00000110: 8d47 b2bd a923 d43d c065 463e 8de9 803d
00000120: 0c67 f7bc 63db d1bd 9875 83bd e39d 1d3e
00000130: ddeb dfbd 5016 70bd 90fd c4bd 63ef 8ebb
00000140: e51a 283e 08b2 4bbc 92c1 0b3e cf93 973d
00000150: 3acd 92bd bc1b c13c 11c3 5a3d a5f1 3bbe
00000160: c675 9f3d f7f3 6f3d 8d01 73bd bbca 023e
00000170: a0c0 773d 056b 6b3d 954c a2bc 39fc e93d
00000180: 265c 233e 13ea b7bd e604 1bbe 940e 3fbd
00000190: fdf5 aa3d 9683 213e e07f 1a3d 6f1c 3c3e
000001a0: ddbd 343b 7049 513d 9b44 25bd 8661 cebd
000001b0: 6996 d3bc 471b 1ebe 9b6d dfbb 3a3b 9d3d
000001c0: 96c3 803d ad68 873c 39f9 943c 86ef 323e
000001d0: e23b c13d ce7a 9dbd 56f8 0c3d 6340 0fbe
000001e0: 6799 0cbe 0d27 943b bc98 333d 1d4f a8bd
000001f0: 3379 943d 14f0 82bd a493 acbb 249f 89bd
00000200: f893 ddbc a3d9 2a3e 9d34 ecbd bcf7 ac3c
00000210: 14ec 783d bd6b 2c3d bd96 c33d dd24 4ebd
00000220: c280 97bd aa39 b73a 4b7b b5bd 3a9e 72bd
00000230: 9ecb 103e 5bf7 dd3d ffb0 513b acf5 c0bd
00000240: 7721 b4bd 12e6 81bd 8058 6c3d da50 c83c
00000250: c712 9dbd 6f7e 13be d492 adbd cd70 873a
00000260: ae9d 9dbd 99b3 853d d76e 20bd 38be b0bd
00000270: 200a 393c 2585 1d3e 4186 25be 8949 09be
00000280: 2bbf edbd fe32 473d ddf0 233b 15e0 44bd
00000290: f59f 3bbd c424 2bbe 7ed9 ba3c de76 32bd
000002a0: b5ad 02bd 278f 44be d138 b0bd b232 95bd
000002b0: 4a42 5abc 5bda d3bc 53cc 0b3e 7d6a c4ba
000002c0: 62b4 073d df07 83bd dfdf ddbc d69b 663d
000002d0: 18fd 413e 014a 613d be8f 7d3c 681d 0abe
000002e0: 1b63 3dbc 87ec 313e c597 943b 4324 273d
000002f0: 8850 f53d 7568 d3bd 2fe8 843d dd5f 97bd
00000300: cc27 57bd 32b4 0b3d f0be a8bd fbbd 0ebd
00000310: 0166 9abd c752 973d 16ba 68bd 7015 0a3d
00000320: 7571 6e3c f874 7abb 74cc 40bd 67b2 133e
00000330: b78e d2bd 7cc5 babb 840d e2bc de9b adbd
00000340: 9140 56bd 6889 b6bc 6883 d3bd a8c8 83bd
00000350: b22d 96bc ce58 963d 69e2 a3bd fe97 243e
00000360: 5191 e2bd 9092 363d 9926 4c3d 0b85 cc3d
00000370: 70b6 60bd 75f6 c93c f9a0 df3d b7c1 e2bc
00000380: 9b19 2a3e 7e63 97bd 0de1 77bc 1194 1fbe
00000390: 920c 84bc a0bb 4cbd 5d4d 2f3e 24f9 2ebe
000003a0: eb11 84bd 763a cebc 376c b83b 23f5 b3bd
000003b0: 1e36 3bbe cb02 37bd 5409 3a3d 3c8f 22be
000003c0: 8089 22bd 8636 babd 34b3 c03d bc7b bbbd
000003d0: 71f6 21bd bb5e 4fbd f657 78bd f072 b5bd
000003e0: cc7e 1e3d 4432 313c e508 0cbc 1982 20be
000003f0: d111 1dbe 5f57 973b a1d2 58bb 7c95 7b3c

feedfwd_stack.4.weight f4 [256, 256]
0.08109491 0.019763468 0.009441246 0.004280102 0.068768814 -0.05269588 0.033662092 0.022755653
0.04317583 -0.051948514 -0.08664374 -0.012321517 0.07525762 -0.014488562 0.09884195 0.028387109
0.023089575 -0.024838272 0.15657054 -0.050256725 -0.045510996 -0.02347249 -0.0032254288 -0.016812112
-0.03430646 0.039617684 -0.017911395 -0.06713348 -0.019910123 0.020644406 -0.054876607 0.032107357
-0.016415605 0.062302124 0.008676696 0.011315857 0.0071616126 0.048064373 -0.02043265 -0.0017059967
-0.032842744 0.07592047 0.15888748 0.052011896 -0.048298225 -0.02192151 -0.033391763 0.021092389
-0.07898239 -0.09493789 0.018837424 -0.0595466 0.06827366 0.16677812 0.05301305 0.048741303
-0.037692025 -0.118122 0.08225489 0.009826633 -0.10972799 -0.005605543 -0.0011234316 0.0648999
0.077379964 -0.10640829 -0.035053696 -0.006254107 0.03115634 0.059271358 9.525524e-05 0.1276265
-0.05556487 -0.051871434 -0.18584937 0.08843326 0.037307058 0.09327918 -0.02731579 -0.079961896
0.06931874 -0.019248685 -0.0035313298 -0.034020744 0.01603457 -0.076950684 0.063825205 0.014653588
0.026204154 -0.020980474 0.017550709 0.07152702 0.024292229 -0.029241048 -0.065074325 -0.043240312
0.023173053 -0.05687238 0.060556993 -0.0520073 0.052181352 -0.056878213 -0.056906745 0.14152929
-0.0893837 -0.091962926 -0.08256837 -0.06675944 7.6072e-05 -0.020436434 0.06471102 -0.0100190565
-0.2911366 -0.03648233 -0.033578318 0.12939395 0.028068557 0.047732394 0.013324652 -0.06096824
-0.039977424 -0.00010249081 -0.03464492 -0.019075185 -0.048824843 0.03613476 -0.16565347 -0.025589256
-0.040086567 0.01772851 -0.059235618 -0.033338964 0.06653788 -0.0029544348 0.053363662 0.1291337
0.065829866 0.013877232 -0.034097478 -0.10574261 0.028189162 -0.012151548 0.02397054 -0.0043835547
0.0702051 0.05288038 0.047215603 -0.012660384 -0.0923806 -0.050187666 -0.001547417 -0.047654208
-0.1223296 0.018460227 0.03497435 0.0013105889 -0.020696197 -0.04791715 0.019248364 0.0030274845
0.011747942 0.0043818005 0.017334316 0.05517872 -0.046623014 -0.047538117 0.042611513 0.07150452
-0.010133173 -0.15500066 0.0039175004 0.036342595 0.018398657 0.064472444 0.016924623 -0.05188697
0.007200598 0.052096244 0.017777361 -0.061100654 0.030657843 -0.06602438 0.05224617 -0.027899617
-0.04256224 0.2319727 -0.0056316946 -0.0135446 0.061209477 0.042610563 -0.013862821 -0.02898968
-0.03664819 0.018856438 0.021734126 -0.012911682 0.0036548988 -0.030560622 0.0067232093 -0.024964938
-0.05045022 -0.019260757 -0.017663054 -0.002325226 0.019861864 0.006117682 -0.036138713 -0.021849565
-0.13113697 -0.0916644 0.028118096 -0.07986404 -0.036488835 0.0049954555 -0.0016381927 0.048867434
-0.08368132 0.07531999 -0.0073245172 0.051440123 -0.08205462 0.0010774983 0.048038922 -0.026973464
0.03985531 -0.014938873 0.011025837 -0.0034084055 -0.005431071 0.110141784 -0.050107498 -0.10440851
-0.06959751 -0.006802644 -0.096870124 0.012679097 -0.0038776943 0.050962 0.043107223 -0.08390864
0.055007823 0.04862285 0.2012513 0.013715825 0.07399348 -0.031789917 -0.035802722 0.015379677
0.19992283 0.0018302036 0.03724434 0.042704865 -0.27613777 -0.0053662863 0.032148946 -0.015934227
00000000: 1715 a63d ffe6 a13c 75af 1a3c 1940 8c3b
00000010: aad6 8c3d a3d7 57bd 43e1 093d 106a ba3c
00000020: 24d9 303d f7c7 54bd 4672 b1bd 30e0 49bc
00000030: ab20 9a3d 6f61 6dbc a66d ca3d 158c e83c
00000040: 5926 bd3c a279 cbbc 0754 203e ffd9 4dbd
00000050: bd69 3abd 6149 c0bc b761 53bb 8eb9 89bc
00000060: ee84 0cbd 2746 223d ebba 92bc 477d 89bd
00000070: 8e1a a3bc 751e a93c 4bc6 60bd 0183 033d
00000080: 057a 86bc 8330 7f3d b328 0e3c 2566 393c
00000090: f6ab ea3b 26df 443d 5f62 a7bc c09b dfba
000000a0: 1d86 06bd 317c 9b3d 66b3 223e 6d0a 553d
000000b0: 5cd4 45bd bd94 b3bc cdc5 08bd f2c9 ac3c
000000c0: 85c1 a1bd cc6e c2bd f150 9a3c 23e7 73bd
000000d0: 10d3 8b3d e2c7 2a3e 3624 593d f6a4 473d
000000e0: f462 1abd f2e9 f1bd 4075 a83d e3ff 203c
000000f0: 12b9 e0bd b4ae b7bb 1c40 93ba 3dea 843d
00000100: 6379 9e3d 97ec d9bd 7794 0fbd 41ef ccbb
00000110: 953b ff3c 86c6 723d c4c3 c738 85b0 023e
00000120: fd97 63bd 2477 54bd 4c4f 3ebe 7f1c b53d
00000130: 49cf 183d 2809 bf3d 5dc5 dfbc 10c3 a3bd
00000140: fcf6 8d3d 6baf 9dbc e26d 67bb 5659 0bbd
00000150: ee5a 833c 5298 9dbd cab6 823d 9a15 703c
00000160: 18aa d63c 3edf abbc 81c6 8f3c c27c 923d
00000170: 7f00 c73c ec8a efbc b045 85bd c11c 31bd
00000180: 6ad5 bd3c 03f3 68bd 9c0a 783d 9b05 55bd
00000190: 1dbc 553d 21f9 68bd 0c17 69bd 0eed 103e
000001a0: cd0e b7bd 0f57 bcbd 9b19 a9bd 2cb9 88bd
000001b0: d888 9f38 4f6a a7bc 3687 843d f826 24bc
000001c0: db0f 95be 7f6e 15bd 6b89 09bd d97f 043e
000001d0: 08f0 e53c 0b83 433d a44f 5a3c d5b9 79bd
000001e0: 5ebf 23bd 56f0 d6b8 d5e7 0dbd 9043 9cbc
000001f0: 8ffc 47bd 0b02 143d 10a1 29be 8fa0 d1bc
00000200: d031 24bd 613b 913c 0ca1 72bd 708e 08bd
00000210: 0345 883d 319f 41bb db93 5a3d a03b 043e
00000220: cfd1 863d 545d 633c cca9 0bbd 958f d8bd
00000230: f5ec e63c 4917 47bc de5d c43c eca3 8fbb
00000240: b1c7 8f3d 1999 583d 2665 413d 806d 4fbc
00000250: 0a32 bdbd 9591 4dbd b3d2 caba 0f31 43bd
00000260: f187 fabd e739 973c 4441 0f3d 11c8 ab3a
00000270: 128b a9bc c644 44bd bfae 9d3c c368 463b
00000280: 717a 403c 3595 8f3b b200 8e3c 1503 623d
00000290: c6f7 3ebd 54b7 42bd 6989 2e3d f670 923d
000002a0: 9c05 26bc 7eb8 1ebe 605e 803b f9db 143d
000002b0: c8b8 963c 210a 843d 82a5 8a3c 6e87 54bd
000002c0: fef2 eb3b df62 553d d4a1 913c ae44 7abd
000002d0: 2826 fb3c ca37 87bd 1400 563d bd8d e4bc
000002e0: be55 2ebd 408a 6d3e 148a b8bb 2cea 5dbc
000002f0: cab6 7a3d 6a88 2e3d e320 63bc c47b edbc
00000300: 6a1c 16bd d178 9a3c c40b b23c 858b 53bc
00000310: 0787 6f3b 455a fabc 5e4e dc3b 4583 ccbc
00000320: e4a4 4ebd bcc8 9dbc 1cb2 90bc d262 18bb
00000330: 59b5 a23c d676 c83b 3006 14bd dcfd b2bc
00000340: c548 06be 8cba bbbd ec57 e63c c28f a3bd
00000350: 5175 15bd ebb0 a33b a0b8 d6ba 3829 483d
00000360: 1d61 abbd 5e41 9a3d 8102 f0bb e1b2 523d
00000370: 410c a8bd d83a 8d3a 76c4 443d 74f7 dcbc
00000380: 523f 233d 2dc2 74bc b6a5 343c 8e5f 5fbb
00000390: 20f7 b1bb 0492 e13d 853d 4dbd 21d4 d5bd
000003a0: 2489 8ebd b7e8 debb d863 c6bd fdbb 4f3c
000003b0: ea20 7ebb 88bd 503d 3391 303d 4bd8 abbd
000003c0: e24f 613d c128 473d d214 4e3e 57b8 603c
000003d0: e589 973d 2536 02bd e0a5 12bd 0afb 7b3c
000003e0: 92b8 4c3e 71e3 ef3a 858d 183d 4ceb 2e3d
000003f0: ee61 8dbe acd7 afbb 9dae 033d 7f88 82bc

feedfwd_stack.4.bias f4 [256]
0.13459481 -0.1419132 -0.08158206 -0.10672536 -0.007484135 -0.08469842 -0.030983357 0.021328118
-0.04082539 0.1079346 -0.068451814 0.023298185 -0.057032418 -0.0135248 0.112463236 0.012378993
0.06954914 0.031205297 0.022682752 -0.06118846 -0.028779875 -0.070406124 -0.06282289 -0.048378605
-0.03226543 -0.027109277 -0.057380166 -0.02635669 -0.023372157 -0.040316183 -0.029933574 0.034961555
0.033506196 0.082631834 0.06867557 -0.07759525 -0.05888632 -0.023168417 0.09228309 -0.04898848
-0.045352135 0.014147338 -0.10159645 -0.10248139 0.09262086 0.063545294 0.011120769 -0.023825632
0.0057573104 -0.007385998 -0.13476856 -0.11382983 0.015679773 0.06354197 -0.081288606 -0.06583927
0.060874254 0.03689128 0.080130406 -0.055337425 0.04116547 0.050582696 -0.06861392 0.109137185
-0.0343903 -0.04178111 -0.078843564 0.091139674 -0.023119036 -0.03559502 0.07577301 -0.017095335
-0.070855945 0.007711982 0.05058756 0.09030147 0.035662834 0.0019062897 -0.073712096 -0.05918472
-0.05257137 0.13325052 -0.124541484 -0.026049579 -0.0036697956 0.008162077 -0.07450947 -0.050328348
0.019827621 -0.15085614 -0.0009915929 -0.0073301247 -0.118045814 0.13685003 0.03432945 0.03623561
0.051661823 -0.01726603 -0.049676042 0.06590865 -0.07663702 0.15359269 0.11631958 -0.03040655
0.08053553 0.01435353 -0.0015016994 -0.12130539 -0.027882688 0.048576407 -0.010318238 -0.016133858
-0.005586947 0.08158993 -0.07849091 -0.036179904 -0.08613271 -0.040891223 0.03125476 -0.0007268691
0.00041837155 -0.061025154 0.022086803 0.021460803 0.011878113 0.059256617 -0.058087602 -0.080780186
0.011945837 -0.10645502 0.0369885 -0.0019480819 -0.023043465 0.060359843 -0.03255028 0.13144852
-0.0048243543 0.003675698 -0.10442887 0.05240603 0.007406152 0.026532965 0.039400786 0.02313838
-0.033530146 0.040513773 -0.09387065 -0.05414552 0.041995727 0.05995205 0.037139494 0.0011878733
0.05955687 0.06315243 0.03214578 0.0661088 0.029136669 -0.01393334 -5.7095018e-05 0.007293951
-0.013985554 -0.05927375 -0.05142537 -0.11604537 -0.04430753 -0.03025887 -0.012689503 0.117107
0.033347145 0.019471884 -0.06437312 0.13471186 0.008774716 0.041735355 -0.014711942 0.017279565
0.00036733193 -0.028063426 -0.023798063 -0.0047217365 -0.11581919 -0.006888905 0.01167853 0.0012814754
0.021380559 0.04323881 -0.03984457 -0.045811124 0.11396188 -0.0058310376 -0.061401904 -0.009688263
0.10460475 -0.02283309 -0.054701287 0.06670946 -0.086038664 0.11525969 -0.048382256 0.01845387
0.002190614 -0.031668566 -0.0040754164 0.08971145 0.010908799 -0.11307937 -0.09864693 -0.059144538
-0.11303661 -0.03500753 0.006397878 0.011025496 0.017288694 -0.06279891 0.008934093 -0.12940978
0.1102562 0.023812246 -0.05500216 -0.05204025 0.14796367 -0.038204443 0.082918376 -0.06731968
0.0147446 0.048483375 -0.045532275 -0.047045186 -0.07376598 0.13671282 0.0884262 0.026943976
-0.059231862 0.024359504 0.12412456 -0.09591274 -0.033150792 -0.06348271 0.1216266 0.02723024
-0.002568839 -0.104004316 -0.006397647 0.051222965 0.017276075 -0.072475545 0.04297841 -0.075509876
-0.04994113 -0.08482709 0.061311424 0.034669288 0.016668389 -0.07601898 -0.03585925 0.023433952
00000000: 39d3 093e b251 11be 7f14 a7bd d392 dabd
00000010: 7a3d f5bb 5d76 adbd cfd0 fdbc 4eb8 ae3c
00000020: 8638 27bd d10c dd3d 7730 8cbd d6db be3c
00000030: d39a 69bd 1f97 5dbc 2053 e63d 43d1 4a3c
00000040: c86f 8e3d 40a2 ff3c 2ed1 b93c c0a0 7abd
00000050: c6c3 ebbc 1631 90bd 4aa9 80bd a528 46bd
00000060: c128 04bd 4614 debc 7707 6bbd fce9 d7bc
00000070: f776 bfbc 9522 25bd 4137 f5bc d933 0f3d
00000080: cb3d 093d e13a a93d c7a5 8c3d 42ea 9ebd
00000090: c832 71bd b1cb bdbc ebfe bc3d 25a8 48bd
000000a0: 29c3 39bd 3dca 673c cd11 d0bd c3e1 d1bd
000000b0: 01b0 bd3d 0924 823d e333 363c f92d c3bc
000000c0: d2a7 bc3b 3e06 f2bb c500 0abe 9d1f e9bd
000000d0: de72 803c 4b22 823d a47a a6bd bdd6 86bd
000000e0: 4857 793d 501b 173d 691b a43d 7fa9 62bd
000000f0: 209d 283d cd2f 4f3d 7485 8cbd 5183 df3d
00000100: d8dc 0cbd ab22 2bbd bc78 a1bd 70a7 ba3d
00000110: 2264 bdbc 15cc 11bd e12e 9b3d 840b 8cbc
00000120: ec1c 91bd cbb4 fc3b e734 4f3d faef b83d
00000130: 3113 123d 78dc f93a 5ef6 96bd ad6b 72bd
00000140: 1455 57bd d372 083e 9b0f ffbd ed65 d5bc
00000150: f480 70bb 3bba 053c 6c98 98bd 1925 4ebd
00000160: 896d a23c 087a 1abe 56f8 81ba 8b31 f0bb
00000170: 01c2 f1bd 6a22 0c3e 0a9d 0c3d ca6b 143d
00000180: 599b 533d 7d71 8dbc 1b79 4bbd 1dfb 863d
00000190: dff3 9cbd 6747 1d3e f638 ee3d 2817 f9bc
000001a0: d0ef a43d 112b 6b3c acd4 c4ba f66e f8bd
000001b0: 3c6a e4bc 0ef8 463d d40d 29bc 272b 84bc
000001c0: b512 b7bb 9f18 a73d d8bf a0bd 6131 14bd
000001d0: 5966 b0bd 8e7d 27bd fe04 003d 5c8b 3eba
000001e0: e158 db39 83f5 79bd 62ef b43c 91ce af3c
000001f0: 6b9c 423c 11b7 723d 44ed 6dbd 1570 a5bd
00000200: 79b8 433c 1705 dabd 4181 173d c856 ffba
00000210: a6c5 bcbc e23b 773d 7153 05bd 719a 063e
00000220: 9e15 9ebb fbe3 703b cede d5bd b5a7 563d
00000230: 4eaf f23b a95b d93c b862 213d b38c bd3c
00000240: e856 09bd c5f1 253d 413f c0bd b1c7 5dbd
00000250: b603 2c3d 4890 753d 951f 183d 6ab2 9b3a
00000260: e8f1 733d 1056 813d 4bab 033d 0d64 873d
00000270: 06b0 ee3c aa48 64bc 4f79 6fb8 1902 ef3b
00000280: aa23 65bc 08c9 72bd 69a3 52bd 32a9 edbd
00000290: d07b 35bd 73e1 f7bc a2e7 4fbc cbd5 ef3d
000002a0: 0497 083d 8083 9f3c 0ed6 83bd e8f1 093e
000002b0: d4c3 0f3c b1f2 2a3d 5b0a 71bc e08d 8d3c
000002c0: 7596 c039 45e5 e5bc 28f4 c2bc ccb8 9abb
000002d0: 9d32 edbd 53bc e1bb 4e57 3f3c 2ef7 a73a
000002e0: 4826 af3c 2e1b 313d 0f34 23bd 72a4 3bbd
000002f0: d964 e93d 4a12 bfbb 9080 7bbd 85bb 1ebc
00000300: 043b d63d 760c bbbc 750e 60bd f89e 883d
00000310: 0a35 b0bd 460d ec3d 792c 46bd 922c 973c
00000320: 6790 0f3b e6b6 01bd 128b 85bb a3ba b73d
00000330: d2ba 323c 2896 e7bd 6707 cabd 8b41 72bd
00000340: bd7f e7bd 0e64 0fbd 4aa5 d13b 48a4 343c
00000350: 05a1 8d3c b79c 80bd 4d60 123c ff83 04be
00000360: 01ce e13d e611 c33c f249 61bd 2828 55bd
00000370: ca83 173e 437c 1cbd 1cd1 a93d e6de 89bd
00000380: 5693 713c 8196 463d 0d80 3abd 74b2 40bd
00000390: 9e12 97bd 72fe 0b3e cc18 b53d 9db9 dc3c
000003a0: 1c9d 72bd 958d c73c 0435 fe3d e66d c4bd
000003b0: 20c9 07bd 3903 82bd 5e17 f93d f411 df3c
000003c0: f759 28bb 3700 d5bd 5aa3 d1bb 2ccf 513d
000003d0: 8e86 8d3c 0f6e 94bd 210a 303d eca4 9abd
000003e0: 128f 4cbd d3b9 adbd b021 7b3d 6201 0e3d
000003f0: 258c 883c d7af 9bbd 26e1 12bd 8ff8 bf3c

feedfwd_stack.6.weight f4 [128, 256]
-0.0036738273 0.0036870358 0.0056870887 -0.0015460617 0.05489571 0.016924845 0.03457719 -0.01566689
-0.029723302 0.094388366 -0.058322977 0.04627386 0.062418994 -0.04917205 -0.010472239 -0.0693829
-0.050361168 -0.0040055434 0.010293893 0.051820956 0.002648374 0.04146721 0.019554477 0.03639666
-0.010770003 -0.038427174 -0.023780636 0.0022482474 -0.0125114815 0.0012158218 0.034471534 0.041771118
0.0032199633 -0.013063026 0.0070746443 0.043002393 -0.00097429217 0.005539955 0.031122198 -0.020057324
0.026743218 0.06617079 0.032807708 -0.040699538 0.070749044 -0.0030122497 0.057325434 -0.029636856
-0.036025196 -0.03295718 0.06577956 0.013592086 0.013212296 0.0462345 -0.024752729 -0.0073863748
-0.034248278 -0.059997935 0.036800113 0.049584016 0.07296708 -0.064016074 -0.019592429 0.048053488
0.0554974 -0.02849766 0.08071162 0.040510498 -0.013533871 0.036307096 0.06763982 -0.05571098
-0.046434816 0.010656386 -0.041661624 -0.0025895946 0.031021785 0.0036833598 0.023313073 0.024795212
-0.03295797 0.071382605 -0.032010034 0.02578473 0.049818125 0.07996969 -0.060206138 -0.024048883
0.024771959 -0.049574956 -0.0624771 -0.028197711 0.019531714 0.0041055284 0.00097311917 -0.011255917
0.046275936 0.002332639 -0.0020009596 -0.04050559 0.03107807 0.040445413 0.058949947 0.051026326
-0.023324316 0.0069922525 -0.06268061 0.026388308 -0.010263514 -0.017926935 -0.029381642 0.013592754
0.03635301 -0.0027866536 0.0024507565 -0.027174437 0.01274231 0.012541515 -0.05436165 -0.020389637
0.04414787 0.06248057 -0.0057186326 0.070311055 -0.045792695 -0.051186282 -0.009383025 -0.05454618
0.029383998 0.03072883 0.052320924 0.034220994 0.0705867 0.047914207 0.030088125 -0.045184415
-0.020113952 -0.019621808 -0.051026534 0.049260866 -0.029216267 0.057647306 0.043737747 0.06933732
0.011701561 0.012139368 0.07148495 0.03166429 -0.042224906 0.010065731 0.06783069 0.05753354
0.07188154 -0.018023776 -0.002105656 -0.02367855 0.023492334 0.06225711 -0.0011627141 -0.012811336
-0.008244204 -0.041651048 0.016188249 -0.04530021 -0.03718826 0.06522606 0.023296937 0.013693916
-0.05322007 0.002641147 -0.0017178968 -0.01009623 -0.030184349 -0.032604326 0.00024569072 0.037228834
-0.033937525 0.019131579 0.04485909 -0.0021032686 0.020704024 -0.02914668 -0.02291138 0.05495589
0.002269466 -0.053284418 -0.026988646 -0.014595777 0.040560387 0.08285496 -0.00884624 0.047577865
0.08291766 0.02190167 0.016108733 -0.02537783 0.008607299 0.08165759 0.024124144 0.066226505
0.023805406 -0.005110619 0.042739723 0.016050003 -0.051824223 0.04583176 0.020351205 0.051266387
0.09338664 -0.06357853 0.047811046 0.07166135 -0.0044908333 0.021400718 -0.034684192 -0.038311698
-0.046992548 0.016458921 0.04564485 -0.046620082 -0.036130212 0.024197765 0.058158793 -0.015546739
0.0049472344 0.0056772497 0.02335796 -0.018112201 0.009407766 0.034024175 0.008934601 0.01832931
-0.01703974 -0.012645366 -0.03165436 -0.032168735 0.002805058 0.020749576 0.00365272 -0.02001529
0.015547033 -0.018394126 0.021211104 -0.027535621 -0.015155835 -0.037124395 0.032721493 -0.01034832
-0.0075027514 -0.01127482 0.020259025 0.026015785 0.040179625 -0.016724598 0.013069466 0.050205182
00000000: 98c4 70bb 32a2 713b c25a ba3b 39a5 caba
00000010: 53da 603d f9a5 8a3c d0a0 0d3d da57 80bc
00000020: 487e f3bc b04e c13d 13e4 6ebd a989 3d3d
00000030: 0fab 7f3d a268 49bd c193 2bbc 9f18 8ebd
00000040: 8347 4ebd ef40 83bb b7a7 283c 3642 543d
00000050: 5890 2d3b 85d9 293d b630 a03c aa14 153d
00000060: ab74 30bc d065 1dbd 9ccf c2bc 5557 133b
00000070: f5fc 4cbc 365c 9f3a 0632 0d3d 3118 2b3d
00000080: 0506 533b 4d06 56bc 6bd2 e73b 4723 303d
00000090: a467 7fba 8388 b53b fbf3 fe3c 424f a4bc
000000a0: 9814 db3c 8d84 873d 6061 063d 8fb4 26bd
000000b0: e0e4 903d 2a69 45bb 13ce 6a3d fec8 f2bc
000000c0: 288f 13bd 1cfe 06bd 6fb7 863d 57b1 5e3c
000000d0: 6378 583c 6360 3d3d 3cc6 cabc 6709 f2bb
000000e0: ec47 0cbd 65c0 75bd b7bb 163d 9c18 4b3d
000000f0: c46f 953d dc1a 83bd 4d80 a0bc bcd3 443d
00000100: 3e51 633d ed73 e9bc 224c a53d 56ee 253d
00000110: 2bbd 5dbc c0b6 143d bf86 8a3d 3231 64bd
00000120: 6f32 3ebd 1f98 2e3c 61a5 2abd 30b6 29bb
00000130: 6621 fe3c 8664 713b 0ffb be3c 541f cb3c
00000140: f0fe 06bd 0b31 923d f41c 03bd 803a d33c
00000150: 170e 4c3d 26c7 a33d b69a 76bd 2a02 c5bc
00000160: 90ee ca3c 1c0f 4bbd fde7 7fbd e3fe e6bc
00000170: f900 a03c ab87 863b ec18 7f3a bd6a 38bc
00000180: d68b 3d3d 30df 183b 8822 03bb 31e9 25bd
00000190: 7097 fe3c 17aa 253d 8075 713d fb00 513d
000001a0: a312 bfbc 441f e53b b15e 80bd 4b2c d83c
000001b0: 4c28 28bc 82db 92bc c5b1 f0bc 24b4 5e3c
000001c0: e5e6 143d 4aa0 36bb df9c 203b ed9c debc
000001d0: 1fc5 503c ed7a 4d3c 52aa 5ebd 2b08 a7bc
000001e0: 66d4 343d a0eb 7f3d 5e63 bbbb 3eff 8f3d
000001f0: 1f91 3bbd b5a8 51bd 42bb 19bc d16b 5fbd
00000200: b6b6 f03c 07bb fb3c 774e 563d 502b 0c3d
00000210: c38f 903d b041 443d 5f7b f63c 4b13 39bd
00000220: 04c6 a4bc eabd a0bc 3301 51bd c3c5 493d
00000230: f456 efbc 951f 6c3d 5a26 333d ba00 8e3d
00000240: e7b7 3f3c 33e4 463c b466 923d 6ab2 013d
00000250: 06f4 2cbd bcea 243c d1ea 8a3d 4aa8 6b3d
00000260: a136 933d 99a6 93bc 0cff 09bb 85f9 c1bc
00000270: ff72 c03c 5001 7f3d 3666 98ba a3e6 51bc
00000280: b312 07bc 4a9a 2abd 389d 843c b78c 39bd
00000290: b852 18bd 3e95 853d 38d9 be3c 725c 603c
000002a0: 4afd 59bd 1817 2d3b 0d2b e1ba a86a 25bc
000002b0: 2b45 f7bc 1d8c 05bd 0dd0 8039 437d 183d
000002c0: 1302 0bbd d4b9 9c3c 2abe 373d fed6 09bb
000002d0: 7c9b a93c 05c5 eebc a5b0 bbbc 6d19 613d
000002e0: 52bb 143b c340 5abd 4b17 ddbc 2023 6fbc
000002f0: a622 263d dcaf a93d d2ef 10bc 02e1 423d
00000300: bcd0 a93d 226b b33c 76f6 833c 2be5 cfbc
00000310: a105 0d3c 183c a73d ff9f c53c c3a1 873d
00000320: 8e03 c33c fb76 a7bb d90f 2f3d 4c7b 833c
00000330: a345 54bd 15ba 3b3d 92b7 a63c b4fc 513d
00000340: 7f41 bf3d 7635 82bd 84d5 433d 30c3 923d
00000350: d727 93bb 8f50 af3c 0311 0ebd baec 1cbd
00000360: 427b 40bd dcd4 863c 18f6 3a3d b3f4 3ebd
00000370: 46fd 13bd 643a c63c ea37 6e3d c0b7 7ebc
00000380: 691c a23b 3908 ba3b 3159 bf3c 0a60 94bc
00000390: 0823 1a3c ef5c 0b3d 6f62 123c 5927 963c
000003a0: ed96 8bbc 822e 4fbc 01a8 01bd 5dc3 03bd
000003b0: 10d5 373b 04fb a93c 7962 6f3b 1bf7 a3bc
000003c0: fcb8 7e3c 47af 96bc e9c2 ad3c 6292 e1bc
000003d0: 2e50 78bc c00f 18bd f906 063d 008c 29bc
000003e0: a4d9 f5bb 06ba 38bc 41f6 a53c 0e1f d53c
000003f0: 6493 243d 0602 89bc 5021 563c f3a3 4d3d

feedfwd_stack.6.bias f4 [128]
-0.03590561 0.050263148 -0.016723722 -0.063515544 -0.053410728 -0.03381897 -0.08889218 -0.008476049
0.0500677 0.057069603 0.04480471 -0.027425243 0.04436631 -0.08549846 0.0731858 0.015877374
-0.04643639 -0.09582708 0.016852235 -0.020117667 0.030770501 -0.10007412 -0.014957648 -0.029584331
-0.046625137 -0.02487692 -0.022804463 0.09680618 0.08103106 0.06253766 -0.09455135 -0.07248673
0.09299891 0.034739077 0.027470894 -0.029922705 0.12093789 0.08959093 -0.047509488 0.043782808
0.13160028 -0.037844718 -0.04747506 0.07329703 0.012008964 0.023686355 -0.041257363 -0.061635416
-0.032858357 0.0042146454 -0.010621274 -0.08661578 -0.043724164 -0.063963406 -0.06469237 0.014688824
-0.05720078 -0.04516194 0.031546976 0.011346771 0.09849409 0.062513605 -0.036155377 0.0160762
0.017340792 0.096183315 -0.0009639475 -0.012991267 0.08785597 0.040927555 -0.045475744 0.03718002
-0.050618142 0.019967811 0.007094699 -0.048011146 0.03242506 -0.022079576 0.029002495 0.04703294
0.0010297898 0.050733235 0.08304785 0.010575306 -0.008183142 9.854147e-05 0.07863776 0.0036163114
-0.05617851 0.06213094 0.020064509 0.00055895327 0.05384897 -0.031889126 -0.063846074 0.013668973
0.05401229 -0.02340882 0.04357336 0.027976595 -0.053994954 -0.09889592 -0.10956905 -0.0044802907
0.0977863 0.027070971 -0.028981587 0.008661589 0.11098821 0.059085354 0.016149549 0.13086826
-0.047399104 0.014670462 0.007892278 0.106203854 -0.06475249 0.025507146 0.04645559 -0.06076097
-0.037539978 0.038979884 -0.04512285 -0.021214083 -0.12207548 -0.040544033 -0.009673607 0.026123138
00000000: c311 13bd bbe0 4d3d 3000 89bc 7014 82bd
00000010: 35c5 5abd c385 0abd 1a0d b6bd 20df 0abc
00000020: ca13 4d3d d1c1 693d 2585 373d e7aa e0bc
00000030: 73b9 353d d119 afbd 70e2 953d 4411 823c
00000040: 1634 3ebd fd40 c4bd b30d 8a3c cecd a4bc
00000050: 6b12 fc3c a9f3 ccbd ec10 75bc d75a f2bc
00000060: 00fa 3ebd afca cbbc 6dd0 babc 5242 c63d
00000070: 9df3 a53d bf13 803d 23a4 c1bd ec73 94bd
00000080: 3676 be3d 904a 0e3d a40a e13c 7620 f5bc
00000090: 49ae f73d 737b b73d 4f99 42bd 9a55 333d
000000a0: 39c2 063e 1003 1bbd 3575 42bd c11c 963d
000000b0: 3fc1 443c e309 c23c 7bfd 28bd 6b75 7cbd
000000c0: 7c96 06bd 021b 8a3b da04 2ebc 9d63 b1bd
000000d0: 1c18 33bd 3fff 82bd 6f7d 84bd 65a9 703c
000000e0: 5d4b 6abd bafb 38bd 6737 013d cfe7 393c
000000f0: 45b7 c93d 2207 803d a917 14bd 3cb2 833c
00000100: 470e 8e3c c2fb c43d 6cb1 7cba 53d9 54bc
00000110: d5ed b33d a7a3 273d c644 3abd 144a 183d
00000120: f854 4fbd 8993 a33c a67a e83b 56a7 44bd
00000130: 24d0 043d 3ae0 b4bc a496 ed3c 9da5 403d
00000140: 03fa 863a a7cd 4f3d fe14 aa3d 0c44 2d3c
00000150: 9612 06bc 0da8 ce38 d50c a13d a3ff 6c3b
00000160: 701b 66bd 037d 7e3d 535e a43c b886 123a
00000170: bd90 5c3d 2c9e 02bd bbc1 82bd d4f3 5f3c
00000180: fe3b 5d3d dbc3 bfbc fb79 323d 2c2f e53c
00000190: d029 5dbd f289 cabd bd65 e0bd 67cf 92bb
000001a0: 2f44 c83d f1c3 dd3c cb6a edbc 56e9 0d3c
000001b0: c94d e33d 7c03 723d 0f4c 843c 5402 063e
000001c0: 9025 42bd 615c 703c 9d4e 013c 6881 d93d
000001d0: f49c 84bd 5df4 d03c 3748 3e3d 7fe0 78bd
000001e0: 85c3 19bd 5fa9 1f3d bdd2 38bd 28c9 adbc
000001f0: b602 fabd 8011 26bd 0c7e 1ebc 3100 d63c
